classifier/model_cnn.pth (torch_old, 433820 bytes, 8 tensors)

conv1.weight f4 [6, 3, 5, 5]
0.08203852 -0.020836255 0.026293434 0.061819248 0.15421242 0.120325565 -0.15128118 -0.16344582
0.07473717 0.13633955 0.0796218 -0.17127965 -0.30309522 -0.21939546 0.050535377 0.17926987
-0.076896414 -0.16332072 -0.14315684 0.014616707 0.08643466 -0.010010626 -0.09217606 0.042970713
-0.035905816 -0.0016278409 -0.115821786 -0.13770628 -0.022269722 -0.08170204 -0.0320811 -0.031552266
0.040571697 -0.013892035 -0.18301281 -0.09339408 0.04316507 0.045850974 -0.0072078165 -0.036948904
-0.1455464 -0.093348034 0.090571634 -0.023392055 -0.02244885 -0.07556426 -0.02616401 -0.03477311
-0.045922663 -0.011934748 -0.06376533 0.24763757 0.19766936 -0.1431074 -0.19367607 -0.0838231
0.30103698 0.30837926 0.17674659 -0.023698471 -0.00073186116 0.13985051 0.33770764 0.33514258
0.013347536 -0.053680263 0.19583178 0.16116643 0.2535918 0.060967874 -0.05593052 -0.00887672
0.1053189 -0.048232842 0.030690746 0.0025541934 -0.06289003 0.22877784 0.10528763 0.032176595
0.00408538 -0.06865273 -0.158643 0.0013006835 -0.07102679 0.079333894 -0.117835976 -0.48871627
-0.38298967 -0.101846635 0.09768242 0.15505615 0.25188497 0.34507245 0.17426895 0.0326226
-0.029908475 0.06536033 -0.03684384 -0.031435248 -0.08861765 0.18380012 0.40804553 0.15658505
0.08552124 0.06441348 0.06591017 -0.087315835 -0.02478113 0.067713924 0.093390815 -0.2590321
-0.5776619 -0.46885714 -0.13471386 0.053598065 0.04086651 0.13184299 0.35074213 -0.013421148
-0.061524443 -0.045789797 0.16409524 -0.13967738 -0.011716538 -0.12684985 0.08008605 0.33366147
0.15957125 0.04243189 -0.07263384 0.10520419 0.0015573982 0.078001074 0.012506207 0.14340188
-0.1763951 -0.4517839 -0.45326915 -0.1614576 -0.16365789 0.07191139 0.20407787 0.35973293
-0.012420315 -0.057667285 -0.03204636 0.09399559 -0.09728503 0.005194788 -0.09363893 -0.08209877
-0.0429281 -0.10163676 -0.13750416 -0.076932065 -0.06048223 -0.02452964 0.0652807 0.042947058
0.05578102 0.15370668 0.1140139 0.17134708 0.060743243 0.07119103 0.20134029 0.2651564
0.05151133 0.19963416 0.10562879 0.02451303 0.09997593 0.07898978 0.11119896 0.11153341
-0.022841185 0.10579549 0.0089774085 -0.040909097 0.042191714 0.06466821 0.07508257 -0.07330829
-0.15368704 -0.0070295027 0.045933645 0.1623693 -0.16671725 -0.16726282 0.17599611 -0.010428221
0.061718885 -0.111518115 -0.117882 0.19794486 0.12835103 -0.09354689 -0.0593655 -0.1017229
0.10067428 0.08394312 0.070154786 0.087874964 0.030805932 0.01055062 -0.02325788 0.05022465
0.14372706 -0.064392604 -0.032533605 -0.08157542 -0.026177367 -0.015292058 -0.03858083 -0.17943388
0.042453516 -0.19181362 -0.2551936 -0.022421999 -0.07768174 -0.12978274 -0.1680903 0.0395549
0.056370154 -0.069512516 -0.14520545 -0.16315687 -0.109961025 0.02871325 0.031223387 -0.20430143
-0.08692448 0.002593869 0.11880232 0.0065281712 0.0042759427 -0.00038191015 -0.009347773 -0.07418433
-0.02398179 0.09614141 0.19658227 0.089009285 0.05101165 0.16033585 0.29617336 0.18386774
0.094585106 -0.014679237 -0.038532056 0.06802431 0.017341647 -0.0827384 -0.032859344 -0.02892374
00000000: d003 a83d cbb0 aabc 5465 d73c 2e36 7d3d
00000010: dce9 1d3e 406d f63d 74e9 1abe 575e 27be
00000020: cd0f 993d 989c 0b3e c110 a33d ef63 2fbe
00000030: 4c2f 9bbe 34a9 60be 2ffe 4e3d 8592 373e
00000040: de7b 9dbd 8c3d 27be b597 12be ea7a 6f3c
00000050: a804 b13d 9c03 24bc cdc6 bcbd 0f02 303d
00000060: fa11 13bd 475d d5ba f933 edbd e002 0dbe
00000070: fe6e b6bc 6653 a7bd 7967 03bd f33c 01bd
00000080: 822e 263d 6b9b 63bc b667 3bbe 6545 bfbd
00000090: dbcd 303d 3bce 3b3d 8c2f ecbb bc57 17bd
000000a0: 1e0a 15be 412d bfbd 9f7d b93d b2a0 bfbc
000000b0: a7e6 b7bc 6fc1 9abd e855 d6bc 406e 0ebd
000000c0: 6719 3cbd f689 43bc 6697 82bd b494 7d3e
000000d0: d669 4a3e bf8a 12be 0553 46be 72ab abbd
000000e0: 8521 9a3e e3e3 9d3e 0ffd 343e 4c23 c2bc
000000f0: 5fda 3fba f934 0f3e 04e8 ac3e cf97 ab3e
00000100: a0af 5a3c d6df 5bbd 2088 483e d008 253e
00000110: c9d6 813e 73b9 793d 6717 65bd aa6f 11bc
00000120: 6fb1 d73d cd8f 45bd 296b fb3c 4164 273b
00000130: 7dcc 80bd bd44 6a3e 0aa1 d73d 9bcb 033d
00000140: a7de 853b cd99 8cbd 5073 22be b27b aa3a
00000150: 7e76 91bd cf79 a23d fd53 f1bd 0539 fabe
00000160: 3917 c4be f894 d0bd b80d c83d 0ac7 1e3e
00000170: 11f7 803e 56ad b03e 8f73 323e 479f 053d
00000180: 9e02 f5bc a3db 853d 91e9 16bd 3fc2 00bd
00000190: 2c7d b5bd 1936 3c3e 58eb d03e d557 203e
000001a0: c325 af3d 37eb 833d e9fb 863d a5d2 b2bd
000001b0: cc01 cbbc 99ad 8a3d af43 bf3d db9f 84be
000001c0: a6e1 13bf 0b0e f0be 6ef2 09be a589 5b3d
000001d0: a463 273d d901 073e 7994 b33e 60e4 5bbc
000001e0: 0e01 7cbd 158e 3bbd 9508 283e 9607 0fbe
000001f0: b9f6 3fbc ede4 01be 2804 a43d add5 aa3e
00000200: a566 233e 10cd 2d3d 0dc1 94bd 4b75 d73d
00000210: 9d21 cc3a 07bf 9f3d d6e6 4c3c f1d7 123e
00000220: eba0 34be 3850 e7be e512 e8be 2455 25be
00000230: ef95 27be 4746 933d caf9 503e ea2e b83e
00000240: 947e 4bbc 8834 6cbd 0b43 03bd c380 c03d
00000250: 603d c7bd 0a39 aa3b c4c5 bfbd 6623 a8bd
00000260: 60d5 2fbd ef26 d0bd e4cd 0cbe 8f8e 9dbd
00000270: 37bc 77bd 62f2 c8bc e3b1 853d 41e9 2f3d
00000280: a47a 643d 4965 1d3e 1f80 e93d 9c75 2f3e
00000290: e8cd 783d 9acc 913d 262c 4e3e 94c2 873e
000002a0: 8bfd 523d e66c 4c3e e853 d83d 8dcf c83c
000002b0: 2ec0 cc3d 65c5 a13d 48bc e33d a16b e43d
000002c0: 701d bbbc 4eab d83d fb15 133c 4c90 27bd
000002d0: 38d1 2c3d c470 843d e4c4 993d a822 96bd
000002e0: 2360 1dbe be57 e6bb eb24 3c3d 2344 263e
000002f0: edb7 2abe f246 2bbe 5338 343e 21db 2abc
00000300: f1cc 7c3d 9c63 e4bd 1e6c f1bd 0fb2 4a3e
00000310: 746e 033e 8395 bfbd 3d29 73bd 1954 d0bd
00000320: 512e ce3d 5fea ab3d 50ad 8f3d caf7 b33d
00000330: b95c fc3c 82dc 2c3c 4f87 bebc 5db8 4d3d
00000340: 302d 133e 45e0 83bd f541 05bd 0411 a7bd
00000350: eb71 d6bc 8a8b 7abc ef06 1ebd 84bd 37be
00000360: bde3 2d3d ca6a 44be bca8 82be 57ae b7bc
00000370: 9b17 9fbd c4e5 04be dd1f 2cbe 5204 223d
00000380: 64e4 663d 945c 8ebd bdb0 14be 9812 27be
00000390: 3f33 e1bd 0d38 eb3c 30c8 ff3c 6534 51be
000003a0: 7605 b2bd e7fd 293b a14e f33d 45ea d53b
000003b0: 351d 8c3b 1d3b c8b9 6727 19bc f4ed 97bd
000003c0: 7575 c4bc cae5 c43d dd4c 493e 804a b63d
000003d0: 98f1 503d 152f 243e 09a4 973e d347 3c3e
000003e0: d6b5 c13d 2f81 70bc cad3 1dbd 5450 8b3d
000003f0: 1210 8e3c c072 a9bd 8597 06bd 7bf1 ecbc

conv1.bias f4 [6]
-0.0344734 -0.022961078 -0.12405128 0.049821995 0.13129862 -0.018864283
00000000: fb33 0dbd df18 bcbc 990e febd 2612 4c3d
00000010: 2573 063e 4589 9abc

conv2.weight f4 [16, 6, 5, 5]
0.0509417 -0.08167293 -0.23801954 -0.41428545 0.027859444 0.001954336 0.2186021 0.16040134
-0.20944853 -0.12959106 0.0144265685 0.094418615 0.40186357 0.05523 -0.3359514 -0.06982753
-0.15527712 0.094364755 0.21162188 -0.03130234 0.12307258 -0.04297011 -0.042339567 0.15754186
0.31672087 -0.010915253 0.07544332 0.19857529 0.03855982 -0.023729982 -0.13474862 -0.062328763
0.02698762 0.054291196 -0.2133931 -0.028599823 0.021665929 -0.051305052 -0.020518174 -0.10296519
-0.16661352 0.09612971 0.0038882385 -0.1275637 -0.12134865 -0.13030209 -0.017592562 -0.03743951
-0.17246267 -0.24208511 -0.058051337 -0.035621054 0.095264114 0.03954441 0.009163474 -0.11557451
-0.15800875 0.11623493 0.111568585 -0.0074934256 0.022772877 -0.113764375 -0.024061268 0.0675258
0.21000946 0.09233187 -0.11885386 0.047334082 0.038249727 0.14113988 -0.04413964 -0.12206511
-0.06274238 0.05816674 0.023238927 0.008596345 -0.13936597 -0.19750987 -0.17260517 -0.20940381
-0.043176 -0.13164411 -0.0050101257 0.29261103 -0.15741451 -0.12189468 -0.06155766 -0.19432874
0.13107489 0.32622766 -0.11903132 0.09466321 -0.09469795 -0.07161681 0.307161 0.006772813
0.13147399 0.026986811 0.0027148868 0.356058 0.074374214 0.054920524 0.22504124 0.40437257
0.36636588 0.07818785 0.087688245 0.20420592 0.34696046 0.27179378 0.12209834 0.08919672
-0.04271542 0.055325553 -0.050134644 0.05030531 -0.087483875 -0.22130531 -0.36683705 -0.10351863
-0.31502563 -0.22231743 -0.22601008 -0.27557942 -0.1397283 0.116771206 0.19874905 0.11387024
-0.016434565 0.10045856 0.067572616 0.170819 0.29874885 0.29243383 0.08401876 0.09912007
0.040106166 0.00031620276 0.13538133 0.05976768 -0.0070347595 -0.056043766 -0.2352084 -0.16960688
-0.0807838 -0.3111579 -0.36728936 -0.39402083 -0.35440177 -0.09355742 0.12818454 0.030361338
0.14344245 0.07064766 0.04963125 0.06642801 0.112164326 0.009189862 -0.07696841 -0.024986694
0.0035037266 -0.0040841536 -0.19918111 -0.12892956 0.03751537 -0.0066300626 -0.027350608 -0.04267621
-0.028518636 -0.025922969 -0.009420775 -0.20738705 -0.15997072 -0.115119055 -0.124929465 0.1243066
-0.018150426 -0.12885861 -0.123723134 0.031087173 0.08699797 0.220781 0.22386046 0.12828164
-0.073762804 0.16429988 0.04680637 -0.03587459 0.031109303 0.016073398 -0.22143763 -0.34072852
-0.08261083 -0.39661705 -0.061404616 -0.2585399 -0.17759973 0.005285504 -0.348637 -0.042753052
-0.21631896 -0.38659257 -0.4201603 -0.28172874 -0.029487692 -0.047268774 -0.038682822 0.08866081
0.055329416 0.1873385 0.12612115 0.38920048 0.4604855 0.33247173 0.30386552 0.07331977
0.18569592 -0.020351777 -0.10554371 -0.06634778 -0.020081129 0.022605553 -0.1927264 -0.31052127
-0.059165526 0.019164613 -0.035271257 -0.063488446 -0.085402116 0.021340165 0.23575494 0.338623
0.33736932 0.21568139 0.223862 0.07723718 0.06030941 -0.0021805023 0.03991224 0.10768158
-0.044205323 -0.21170133 -0.35752505 -0.4140952 -0.5058965 -0.18498626 -0.19934712 -0.023905488
0.0037514195 -0.20182113 -0.0047808816 -0.2119661 -0.18678269 -0.12582745 0.12828358 -0.09401597
00000000: 3ea8 503d 2344 a7bd 65bb 73be 391d d4be
00000010: 7d39 e43c 5114 003b 3bd9 5f3e 4040 243e
00000020: ad79 56be 85b3 04be 6a5d 6c3c 8c5e c13d
00000030: 10c1 cd3e da38 623d d201 acbe bc01 8fbd
00000040: f700 1fbe 4f42 c13d 68b3 583e e236 00bd
00000050: 7a0d fc3d 6d01 30bd 416c 2dbd a752 213e
00000060: 3d29 a23e e4d5 32bc 0782 9a3d 5257 4b3e
00000070: e7f0 1d3d 6165 c2bc 8bfb 09be 724c 7fbd
00000080: 2415 dd3c 7260 5e3d b983 5abe 2d4a eabc
00000090: bf7c b13c 3f25 52bd bb15 a8bc 6adf d2bd
000000a0: bc9c 2abe a7df c43d d1d1 7e3b 0fa0 02be
000000b0: a485 f8bd e96d 05be 471e 90bc 2c5a 19bd
000000c0: 0e9a 30be 29e5 77be 3dc7 6dbd 62e7 11bd
000000d0: d519 c33d 52f9 213d 6522 163c 54b2 ecbd
000000e0: 0ccd 21be 940c ee3d 127e e43d 698b f5bb
000000f0: 2f8e ba3c 4cfd e8bd 231c c5bc f74a 8a3d
00000100: b80c 573e 7e18 bd3d a769 f3bd 62e1 413d
00000110: bfab 1c3d f986 103e c4cb 34bd 46fd f9bd
00000120: 147f 80bd 3f40 6e3d 905f be3c afd7 0c3c
00000130: f4b5 0ebe 0740 4abe 69bf 30be f46d 56be
00000140: 51d9 30bd b7cd 06be fb2b a4bb 1dd1 953e
00000150: 4531 21be eba3 f9bd e323 7cbd 1dfe 46be
00000160: 7f38 063e 5007 a73e b1c6 f3bd c9de c13d
00000170: 00f1 c1bd d6ab 92bd 3544 9d3e 79ee dd3b
00000180: 1ea1 063e 7213 dd3c 3eec 313b 3c4d b63e
00000190: 8251 983d 58f4 603d 3671 663e ec09 cf3e
000001a0: 4f94 bb3e f420 a03d e595 b33d 5b1b 513e
000001b0: cda4 b13e 8e28 8b3e b20e fa3d c5ac b63d
000001c0: 5df6 2ebd 0c9d 623d fc59 4dbd f10c 4e3d
000001d0: bf2a b3bd dc9d 62be 11d2 bbbe 9301 d4bd
000001e0: 0a4b a1be 2ea7 63be 306f 67be bf18 8dbe
000001f0: ef14 0fbe be25 ef3d df84 4b3e cd34 e93d
00000200: c8a1 86bc 38bd cd3d 8363 8a3d 2deb 2e3e
00000210: 9cf5 983e e3b9 953e 0712 ac3d 77ff ca3d
00000220: 5d46 243d 04c8 a539 67a1 0a3e f4ce 743d
00000230: d783 e6bb 268e 65bd 79da 70be 6dad 2dbe
00000240: fa71 a5bd 1750 9fbe 5a0d bcbe 19bd c9be
00000250: 2674 b5be 089b bfbd cf42 033e 57b8 f83c
00000260: 94e2 123e b8af 903d 234a 4b3d 690b 883d
00000270: 69b6 e53d 1391 163c 9da1 9dbd e5b0 ccbc
00000280: c79e 653b 5dd4 85bb 22f6 4bbe 1c06 04be
00000290: b7a9 193d ff40 d9bb 620e e0bc 40cd 2ebd
000002a0: ea9f e9bc 685c d4bc 9859 1abc 455d 54be
000002b0: 5dcf 23be 8ac3 ebbd 05db ffbd 7594 fe3d
000002c0: 34b0 94bc 83f3 03be 8e62 fdbd 87aa fe3c
000002d0: fe2b b23d 6a14 623e ad3b 653e 435c 033e
000002e0: f410 97bd 3a3e 283e 09b8 3f3d 3cf1 12bd
000002f0: f0d8 fe3c 5cac 833c 8cc0 62be f873 aebe
00000300: de2f a9bd 6411 cbbe 6883 7bbd 575f 84be
00000310: b4dc 35be 0532 ad3b 8d80 b2be d31d 2fbd
00000320: b882 5dbe 76ef c5be 401f d7be c03e 90be
00000330: 2c90 f1bc e79c 41bd e171 1ebd cc93 b53d
00000340: 19a1 623d aad5 3f3e e725 013e 4945 c73e
00000350: c1c4 eb3e bc39 aa3e 4394 9b3e ad28 963d
00000360: 1227 3e3e c5b8 a6bc 4d27 d8bd 58e1 87bd
00000370: 2e81 a4bc 482f b93c 125a 45be a5fc 9ebe
00000380: 8d57 72bd 1bff 9c3c 9878 10bd 3b06 82bd
00000390: 4ee7 aebd 92d1 ae3c be69 713e fe5f ad3e
000003a0: acbb ac3e 95db 5c3e 153c 653e 872e 9e3d
000003b0: 0007 773d c2e6 0ebb 047b 233d 2988 dc3d
000003c0: a410 35bd 3cc8 58be 860d b7be 4904 d4be
000003d0: 6f82 01bf 0a6d 3dbe a721 4cbe 71d5 c3bc
000003e0: 60da 753b 33aa 4ebe f1a8 9cbb a40d 59be
000003f0: f643 3fbe e9d8 00be c55c 033e 728b c0bd

conv2.bias f4 [16]
-0.21655226 0.025447415 0.19014753 0.473317 0.06357707 -0.08881903 -0.09378429 -0.04690314
-0.052613277 -0.0065839584 -0.15751052 0.20072478 0.22721669 0.07202605 -0.46773228 0.59233034
00000000: e0bf 5dbe 1977 d03c 09b6 423e 9b56 f23e
00000010: b234 823d c0e6 b5bd fa11 c0bd 821d 40bd
00000020: 0581 57bd 3fbe d7bb 704a 21be cc8a 4d3e
00000030: 7eab 683e 6582 933d 9b7a efbe f6a2 173f

fc1.weight f4 [256, 400]
-0.14772256 0.14257042 -0.22182505 0.22262456 0.6494636 -0.040626716 0.08702185 0.011354341
-0.031064069 0.06381108 0.21329938 0.02957376 -0.12828076 0.13899994 -0.014450997 0.023279242
-0.014267667 -0.3920658 -0.28368998 0.044887733 0.04196401 -0.07731951 -0.3252516 -0.08063035
0.29781958 0.3937747 0.117450036 0.09366539 0.26067448 0.08041708 0.46056932 0.08490402
0.26401007 0.30290824 0.05672732 0.15382086 0.3632501 -0.16314854 0.3728446 0.018170634
-0.3280801 -0.2760709 0.0073874295 0.16068134 -0.2223352 -0.49396515 -0.3438155 -0.14826448
-0.26348177 -0.56541425 0.2293862 0.18767536 0.12594298 0.05952423 0.0063456674 0.19412898
0.39594123 0.24111882 0.0143171605 0.00060363614 0.3186117 0.33235183 0.014086297 0.3213999
0.13401234 0.27905342 0.056137808 -0.15805833 -0.027650785 0.04084869 -0.19589932 -0.14462046
-0.1376172 0.12264037 -0.046293262 -0.27937627 -0.06653403 0.23356897 -0.026342763 -0.20006424
-0.17255071 -0.04392601 -0.18219954 -0.30917656 -0.18773454 -0.030385748 0.009704235 0.32806763
0.054658566 -0.10251838 -0.20985438 0.36580306 -0.19599754 0.35227826 -0.10851811 -0.14800295
-0.27000132 -0.21811554 -0.14363217 -0.2533888 0.33082855 0.031698063 -0.03993745 -0.42874947
-0.6063229 0.040654678 -0.39154574 -0.29249996 -0.372313 -0.5431216 -0.23146014 -0.5134619
-0.22739577 -0.15486501 -0.093608394 -0.24025755 -0.14266974 -0.053962648 0.09017233 -0.04858048
0.047231086 0.03031725 0.1131158 0.30668688 0.20286566 -0.5974487 -0.3439203 -0.35809353
-0.40304223 -0.12240321 -0.07449393 -0.15908115 -0.3120793 -0.1552312 0.19834712 -0.10473385
0.015986068 -0.20689858 -0.008821138 0.13019985 0.023737352 0.25776446 0.14128037 0.15805866
0.053720914 -0.11345904 0.08557791 0.021392971 0.18218982 -0.106454164 -0.021303171 0.00074736547
-0.0221303 0.04223257 -9.727478e-05 -0.043385517 0.037170965 -0.030367065 0.0016115233 0.004012026
-0.042903442 -0.022503866 0.0009490028 0.023758281 -0.037710954 0.037583824 -0.010887206 -0.0011954531
0.021109138 0.006306328 -0.021526659 -0.0071001053 0.044063684 -0.034739055 -0.048707075 0.0310772
0.044182416 0.006176435 0.3004505 0.33417264 -0.021915395 0.058803387 0.16595794 0.21226464
0.2420063 -0.027169107 -0.033431605 0.17586826 0.11132361 0.006552732 0.0679468 0.09110192
-0.06415443 0.063512996 -0.053454235 0.06280754 -0.07409106 0.019921396 -0.054239247 0.0034339959
-0.12813559 -0.014763222 0.09122412 0.022266697 -0.0843263 0.06520465 0.21642983 0.19279677
-0.0486246 -0.072071075 0.16904163 0.21110316 0.39135456 0.15273234 -0.02435671 0.074421294
0.044577762 -0.11196314 -0.12164416 -0.10718488 -0.01989419 0.13329712 0.07510969 -0.10377549
-0.14640026 -0.02163692 -0.0028196874 -0.0030119296 0.21547672 0.32098556 0.2522852 -0.10817119
0.038861066 0.14701751 0.02877279 0.39293307 0.37516204 0.17501208 -0.07047264 0.016069448
0.14994068 -0.15940061 0.16684873 0.057423037 -0.18962532 0.32158023 0.10048515 0.30407846
0.09658607 -0.035730373 -0.15855801 -0.45655915 -0.3184217 0.19384764 -0.13501318 0.0467608
00000000: 9544 17be fbfd 113e 1b26 63be b1f7 633e
00000010: 3f43 263f 3368 26bd 8338 b23d 8f07 3a3c
00000020: 137a febc 62af 823d 276b 5a3e ac44 f23c
00000030: 085c 03be 0056 0e3e e0c3 6cbc 1cb4 be3c
00000040: efc2 69bc d9bc c8be d03f 91be 33dc 373d
00000050: 74e2 2b3d b159 9ebd 6187 a6be 8621 a5bd
00000060: cf7b 983e d69c c93e a589 f03d a4d3 bf3d
00000070: 2077 853e b6b1 a43d becf eb3e 29e2 ad3d
00000080: 542c 873e ca16 9b3e e85a 683d 3783 1d3e
00000090: ebfb b93e 6910 27be 7de5 be3e 95da 943c
000000a0: 1dfa a7be 2a59 8dbe 4012 f23b a689 243e
000000b0: d7ab 63be 00e9 fcbe 9608 b0be a5d2 17be
000000c0: 15e7 86be fdbe 10bf 37e4 6a3e f82d 403e
000000d0: 32f7 003e aecf 733d 51ef cf3b bfc9 463e
000000e0: cfb8 ca3e dae7 763e 8692 6a3c 563d 1e3a
000000f0: 1321 a33e 052a aa3e 36ca 663c 878e a43e
00000100: 883a 093e 17e0 8e3e c2f0 653d 0bda 21be
00000110: e683 e2bc f550 273d d599 48be 6317 14be
00000120: 86eb 0cbe e02a fb3d 019e 3dbd 680a 8fbe
00000130: fe42 88bd b42c 6f3e c7cc d7bc a4dd 4cbe
00000140: 22b1 30be c3eb 33bd 8492 3abe 644c 9ebe
00000150: 7c3d 40be 88eb f8bc 83fe 1e3c 7bf8 a73e
00000160: a9e1 5f3d 28f5 d1bd 11e4 56be 8a4a bb3e
00000170: 94b3 48be d15d b43e be3e debd 168e 17be
00000180: 9d3d 8abe ae59 5fbe 5014 13be 2dbc 81be
00000190: 5c62 a93e d4d5 013d 7495 23bd 0d85 dbbe
000001a0: fa37 1bbf 8585 263d af78 c8be 8ec2 95be
000001b0: cf9f bebe 040a 0bbf e303 6dbe 3d72 03bf
000001c0: 70da 68be ef94 1ebe c2b5 bfbd 1306 76be
000001d0: 0418 12be f007 5dbd 45ac b83d 53fc 46bd
000001e0: 6275 413d e25b f83c 42a9 e73d 1006 9d3e
000001f0: 04bc 4f3e 66f2 18bf 5216 b0be 0958 b7be
00000200: 8d5b cebe 89ae fabd 4690 98bd 2be6 22be
00000210: dcc8 9fbe edf4 1ebe 821b 4b3e b37e d6bd
00000220: 37f5 823c 39dd 53be 8986 10bc 1c53 053e
00000230: d674 c23c b4f9 833e cdab 103e 21da 213e
00000240: 760a 5c3d 375d e8bd 7943 af3d 5040 af3c
00000250: f88f 3a3e a404 dabd fd83 aebc d9ea 433a
00000260: 9a4a b5bc 0ffc 2c3d 0000 ccb8 03b5 31bd
00000270: 9540 183d 5ac4 f8bc c039 d33a 5077 833b
00000280: 85bb 2fbd 075a b8bc 80c6 783a baa0 c23c
00000290: cd76 1abd 7ff1 193d 4060 32bc c0b0 9cba
000002a0: 12ed ac3c 50a5 ce3b ad58 b0bc 00a8 e8bb
000002b0: 1f7c 343d 8a4a 0ebd 1281 47bd 9d95 fe3c
000002c0: 9ff8 343d b163 ca3b a6d4 993e ad18 ab3e
000002d0: ea87 b3bc d2db 703d e1f0 293e e75b 593e
000002e0: 80d0 773e bf91 debc 94ef 08bd cf16 343e
000002f0: a2fd e33d 4db8 d63b b127 8b3d a593 ba3d
00000300: 6663 83bd 1a13 823d d4f2 5abd 3da1 803d
00000310: 0ebd 97bd 3232 a33c f929 5ebd e40c 613b
00000320: fa35 03be 71e1 71bc b6d3 ba3d a668 b63c
00000330: 44b3 acbd 048a 853d c89f 5d3e 846c 453e
00000340: 972a 47bd 009a 93bd 4019 2d3e 6d2b 583e
00000350: a05f c83e de65 1c3e b987 c7bc 316a 983d
00000360: 2c97 363d ee4c e5bd 9320 f9bd bf83 dbbd
00000370: 24f9 a2bc 0a7f 083e 1cd3 993d 3e88 d4bd
00000380: f3e9 15be e93f b1bc 81ca 38bb cb63 45bb
00000390: eea5 5c3e 3858 a43e 872b 813e db88 ddbd
000003a0: c82c 1f3d c28b 163e eab4 eb3c 862e c93e
000003b0: 3d15 c03e 5e36 333e f653 90bd 13a4 833c
000003c0: 0d8a 193e ea39 23be 65da 2a3e 6b34 6b3d
000003d0: 242d 42be 2aa6 a43e 29cb cd3d 2cb0 9b3e
000003e0: ebce c53d 035a 12bd 085d 22be 1fc2 e9be
000003f0: 2b08 a3be ff7f 463e e540 0abe 4188 3f3d

fc1.bias f4 [256]
0.6617037 -0.071703926 0.30581787 0.44307688 -0.117578365 0.5138722 0.8846335 0.67531216
-0.837905 0.60217327 -0.16166317 0.51759994 0.585541 -0.0690033 -0.064547986 -0.30922973
-0.06513955 -0.53087443 1.0842975 -0.027442226 -0.04182996 -0.05296234 0.045876015 0.15371431
-0.025742788 0.62598574 -0.013656922 0.93316245 1.137657 1.8130887 -0.5035669 -0.0832998
0.590115 -0.78132486 -0.070522785 -0.05072652 -0.15328418 -0.12674287 -0.061181482 0.10661673
-0.8920987 -0.1298453 -0.08320157 0.31475368 0.52302295 0.22363833 -0.02832141 0.07594575
0.8770408 -0.62336916 -0.018453516 0.2737302 -0.08460675 0.19797875 0.02307739 0.36669618
0.01656064 1.1047887 1.7740233 0.5790596 1.0851703 -0.016297549 0.022884283 -0.5977845
0.89447606 1.1401767 0.011226905 0.29046774 -0.22043894 0.41105756 0.9627144 -0.74212694
0.23113509 1.4484925 -0.38503015 -0.7514543 -0.29049826 -1.1917557 1.211699 0.17742036
0.4351146 1.4323367 -0.010752676 1.4312885 0.78518635 -0.01638028 0.26875404 1.6617143
0.8695886 1.2991904 0.95150447 -0.13533033 -0.21886557 0.45019704 -0.06786501 0.93258
1.1649479 -0.21323632 -0.0583529 -0.05694629 0.02462736 -0.5957465 -0.057457436 -0.055927977
-0.42834997 -0.057445046 -0.3796423 -0.4655035 -0.03441744 1.0708668 0.77320766 -0.39439288
0.6263161 -0.29301038 -0.03348185 0.8569067 0.22540554 0.7468299 0.33747166 1.2912052
-0.010425598 0.21173537 0.0088423025 -0.7349602 -0.3993113 0.5509156 0.20835191 -0.08811374
-0.18619598 -0.026267359 0.00010762831 0.033812728 0.026676955 0.016213056 0.31046164 0.10635365
0.14376058 0.0048939786 -0.023702502 -0.073832035 -0.2407256 1.7647742 1.5994033 0.5978952
1.6383536 -0.06177561 1.2859931 -0.012037195 -0.2614512 -0.03154641 -0.43848398 0.8206388
1.8695052 -0.0055823307 -0.034841426 0.4052216 -0.2519451 0.90342736 0.94826686 -0.13695453
0.7321938 0.8281985 -0.9809981 0.3989068 0.57671565 0.15365101 -0.83335364 -0.55592036
0.2694118 0.09039819 -0.4317957 0.8272465 0.5700831 -0.047858927 0.76879156 1.9350504
-0.01245784 0.35478345 -0.0691802 0.9560697 0.7931197 -0.6852897 -0.07212625 -0.46600258
-0.25990328 -0.91687304 -0.10808546 0.57844716 -0.14607103 0.30007035 -0.07516945 -0.015682092
-0.039433975 0.12245293 0.34812468 0.6605347 -0.101469025 -0.050262637 -0.64658767 0.008054861
-0.066245176 0.19115584 -0.057508517 -0.47644788 -0.1527328 -0.32535747 0.015813656 0.07139891
-0.028992025 -0.17513224 -0.14828596 -0.30002758 0.22085047 -0.42922565 0.18736553 0.6843656
-0.5260913 -0.29381958 0.0053844857 1.0950321 -0.042226102 0.62856525 -0.044564765 -0.022059252
-0.22126222 0.046586342 0.34031478 -0.56352353 0.5056538 1.7774203 0.88595176 -0.07940967
-1.2698191 -0.7054971 -0.057619587 -0.054571174 1.5061775 0.98198915 -0.2585554 0.039172973
-0.054460447 0.7603409 1.7086523 0.050530992 -0.9436339 0.05285965 1.229545 -0.061931707
0.008163035 1.2339175 0.46479243 0.016216572 -0.055067096 -0.067720294 0.098214276 -0.28145576
00000000: 6a65 293f 82d9 92bd 2994 9c3e f9da e23e
00000010: edcc f0bd 218d 033f 5777 623f 42e1 2c3f
00000020: f180 56bf 0728 1a3f 088b 25be 6e81 043f
00000030: 04e6 153f 9a51 8dbd bc31 84bd 5c53 9ebe
00000040: e267 85bd 63e7 07bf 43ca 8a3f 85ce e0bc
00000050: e455 2bbd 0aef 58bd 7de8 3b3d 4967 1d3e
00000060: 8ae2 d2bc 9a40 203f 48c1 5fbc bce3 6e3f
00000070: bf9e 913f 4a13 e83f c3e9 00bf 1699 aabd
00000080: c711 173f e804 48bf 406e 90bd 9dc6 4fbd
00000090: 87f6 1cbe e2c8 01be 6f99 7abd df59 da3d
000000a0: 9560 64bf 2bf6 04be 9665 aabd 6527 a13e
000000b0: d5e4 053f 7201 653e 4d02 e8bc 7289 9b3d
000000c0: bf85 603f 1f95 1fbf d42b 97bc 5d26 8c3e
000000d0: 4e46 adbd f1ba 4a3e cb0c bd3c 9abf bb3e
000000e0: 2eaa 873c b769 8d3f 3213 e33f 403d 143f
000000f0: dce6 8a3f 7082 85bc d277 bb3c 6808 19bf
00000100: 62fc 643f 4ff1 913f 0df1 373c 30b8 943e
00000110: bfba 61be 2376 d23e 7374 763f 08fc 3dbf
00000120: adae 6c3e 3468 b93f ac22 c5be 4f5f 40bf
00000130: 30bc 94be 738b 98bf f418 9b3f afad 353e
00000140: 57c7 de3e cf56 b73f fe2b 30bc 7634 b73f
00000150: f901 493f f02f 86bc 219a 893e 0eb3 d43f
00000160: 5c9d 5e3f df4b a63f cc95 733f 0994 0abe
00000170: 4c1e 60be 3a80 e63e cffc 8abd 90bd 6e3f
00000180: 031d 953f 9f5a 5abe 7303 6fbd 8340 69bd
00000190: 51bf c93c d882 18bf 7d58 6bbd bc14 65bd
000001a0: b050 dbbe 7f4b 6bbd 7a60 c2be 7a56 eebe
000001b0: 4df9 0cbd 2a12 893f f0f0 453f dded c9be
000001c0: 4056 203f 7505 96be 4424 09bd 3d5e 5b3f
000001d0: b6d0 663e 3f30 3f3f 16c9 ac3e 3646 a53f
000001e0: 21d0 2abc 28d1 583e 4edf 103c 5a26 3cbf
000001f0: 8872 ccbe ce08 0d3f 345a 553e fa74 b4bd
00000200: 29aa 3ebe a52e d7bc 82b6 e138 377f 0a3d
00000210: a189 da3c 3ed1 843c d4f4 9e3e f1cf d93d
00000220: f935 133e ab5d a03b c02b c2bc 4035 97bd
00000230: c680 76be 1fe4 e13f 3fb9 cc3f a90f 193f
00000240: 92b5 d13f 6c08 7dbd 6c9b a43f a837 45bc
00000250: efdc 85be cf36 01bd f980 e0be 6215 523f
00000260: f24b ef3f fceb b6bb e2b5 0ebd 3579 cf3e
00000270: f3fe 80be 0447 673f 9ec1 723f cf3d 0cbe
00000280: 0e71 3b3f d104 543f b122 7bbf 833d cc3e
00000290: a3a3 133f b156 1d3e aa56 55bf cc50 0ebf
000002a0: 58f0 893e b022 b93d 5314 ddbe 6dc6 533f
000002b0: f7f0 113f b907 44bd 86cf 443f bbaf f73f
000002c0: f81b 4cbc 2da6 b53e 59ae 8dbd fcc0 743f
000002d0: e509 4b3f 256f 2fbf edb6 93bd e497 eebe
000002e0: 0b12 85be 31b8 6abf e95b ddbd 1d15 143f
000002f0: a593 15be d2a2 993e 71f2 99bd bb77 80bc
00000300: 8585 21bd 9ac8 fa3d 663d b23e cd18 293f
00000310: fece cfbd 32e0 4dbd c586 25bf 89f8 033c
00000320: 8dab 87bd 5bbe 433e 0d8e 6bbd faf0 f3be
00000330: fd65 1cbe 4195 a6be a48b 813c 9739 923d
00000340: af80 edbc de55 33be 46d8 17be 379d 99be
00000350: a026 623e 77c3 dbbe c0dc 3f3e 9532 2f3f
00000360: ebad 06bf 856f 96be 5770 b03b 032a 8c3f
00000370: 47f5 2cbd a7e9 203f 8b89 36bd 9bb5 b4bc
00000380: 9092 62be 52d1 3e3d bd3d ae3e 1443 10bf
00000390: 8772 013f 8282 e33f bccd 623f 89a1 a2bd
000003a0: 6f89 a2bf 759b 34bf 8402 6cbd 0686 5fbd
000003b0: 6dca c03f a463 7b3f 6061 84be d773 203d
000003c0: eb11 5fbd b4a5 423f 1eb5 da3f 96f9 4e3d
000003d0: fe91 71bf 5c83 583d bb61 9d3f 1aac 7dbd
000003e0: 40be 053c 02f1 9d3f 46f9 ed3e 9ed8 843c
000003f0: 098e 61bd f0b0 8abd 9124 c93d f81a 90be

fc2.weight f4 [10, 256]
-0.24526098 0.022774918 -0.41338727 -0.13428824 -0.05482491 -0.13337874 -0.15881163 0.04162563
0.023901358 0.024622638 -0.33897543 -0.1086963 0.102912486 -0.010461999 0.0093270065 -0.18145806
-0.06610848 0.045497358 -0.20847546 -0.034689188 0.011252933 -0.024647139 0.034353517 0.071869195
-0.004147597 -0.16286999 -0.057113897 -0.15297621 0.06940844 -0.29597497 0.05232723 0.04105218
-0.13116479 -0.0057384213 0.02403432 -0.009856755 0.103354104 -0.07115007 0.008729659 -0.1345946
0.041819178 -0.15016976 -0.059160363 0.05637005 0.025805023 -0.5711396 0.030782944 0.08612121
0.1283731 -0.05563765 0.0802422 -0.07878997 -0.056242052 -0.042965364 -0.009944901 -0.08415994
0.070544116 -0.17192487 -0.40551728 0.052456222 0.026170224 0.043402564 -0.029010274 -0.043175366
-0.12846518 -0.3093511 0.0031334404 0.03471406 0.0030580666 -0.052677285 -0.21472177 0.032161444
0.06129148 -0.21198644 -0.09053966 0.057670064 0.045602545 0.07331811 -0.26902023 -0.019180587
-0.06357609 -0.21577506 -0.022898415 -0.07283349 -0.25680903 -0.0697549 0.053597048 -0.18815944
-0.12903556 0.06384279 -0.21576783 -0.1938581 -0.09294894 -0.13643415 -0.047588356 -0.11546982
-0.46404597 -0.20775603 -0.03257637 -0.0017153706 -0.07032581 -0.033731457 -0.059756648 0.03475665
-0.16491644 0.021737825 0.07482298 -0.1083653 -0.0036830276 -0.06571335 0.041876853 0.07503206
0.009135038 0.037024885 0.06255827 0.059734367 0.060318228 -0.09875067 0.041007236 -0.09809395
0.07037553 -0.070842676 -0.07045863 0.06420984 0.0366716 0.05055119 -0.05242983 -0.0106051965
0.07215719 -0.006458615 -0.024155717 0.037346598 -0.078070596 -0.051579226 -0.23683819 -0.07248616
0.011219696 -0.04751433 -0.07410552 -0.056757245 0.014287981 -0.3082497 -0.15382448 -0.13068303
-0.044310007 -0.012584452 -0.22847244 -0.007903785 0.04470525 -0.026395902 0.059924386 -0.234228
-0.14058472 -0.07377926 -0.082683325 -0.045082465 0.02169302 0.061525807 -0.004287332 -0.043411445
0.07215754 -0.18194604 0.041229926 -0.20338076 -0.18841875 -0.06595551 0.024560684 -0.09529607
-0.15711506 -0.26347357 -0.11701578 -0.09920358 -0.05747736 0.014022041 -0.17964925 -0.33055353
-0.058950864 -0.11891283 -0.039466783 -0.19759539 -0.1725228 0.019969823 -0.013449705 0.040361967
0.021693816 0.11578918 0.085027814 0.043020558 -0.12751688 0.07344504 -0.07170042 -0.04841717
0.06583813 -0.12776475 0.06978118 -0.25497895 0.017188637 -0.03671847 0.060798746 -0.002559339
-0.04809977 0.0594139 0.030483082 -0.0595362 -0.14936139 0.09951731 0.085281506 -0.029893298
-0.029454747 -0.12081407 0.035611648 0.06610355 -0.22058065 0.068579264 -0.10570919 -0.020850912
0.011939614 0.06754955 0.0151834255 -0.20809026 0.017735977 0.19181353 0.021778518 0.04790543
0.049437027 0.024858737 0.04232208 0.021433579 0.0140829645 -0.2788514 -0.080661386 -0.059969526
0.09546871 -0.11630147 -0.026332594 -0.053017978 -0.24390551 -0.23456326 0.09469489 0.12214007
-0.0026192742 -0.038708564 -0.2708592 -0.24462444 0.10210815 -0.10839066 -0.16078776 -0.051033337
-0.017602408 -0.1804164 0.061580975 0.058846533 -0.019740734 -0.028259704 0.07327294 -0.0947507
00000000: b225 7bbe 7792 ba3c 7fa7 d3be db82 09be
00000010: 1690 60bd 7094 08be 849f 22be a37f 2a3d
00000020: c8cc c33c 6ab5 c93c 308e adbe 2a9c debd
00000030: c8c3 d23d ce68 2bbc 4dd0 183c 24d0 39be
00000040: e263 87bd 705b 3a3d 977a 55be 4016 0ebd
00000050: 395e 383c cce8 c9bc 46b6 0c3d 2830 933d
00000060: 91e8 87bb 64c7 26be 43f0 69bd cca5 1cbe
00000070: 0326 8e3d 088a 97be 1455 563d 5526 283d
00000080: 1050 06be 5e09 bcbb 9fe3 c43c 3a7e 21bc
00000090: 51ab d33d 21b7 91bd d806 0f3c 2bd3 09be
000000a0: 964a 2b3d 1ac6 19be 2352 72bd 48e4 663d
000000b0: 0e65 d33c 3436 12bf 832c fc3c 5160 b03d
000000c0: 3d74 033e 4ee4 63bd 0656 a43d a35c a1bd
000000d0: 115e 66bd 73fc 2fbd f0ef 22bc 0c5c acbd
000000e0: 6f79 903d 130d 30be f69f cfbe 56dc 563d
000000f0: f062 d63c e3c6 313d f4a6 edbc a7d8 30bd
00000100: 608c 03be 4463 9ebe 685a 4d3b 5530 0e3d
00000110: d869 483b 23c4 57bd 06e0 5bbe b8bb 033d
00000120: c60c 7b3d f912 59be db6c b9bd 7237 6c3d
00000130: bcc9 3a3d ce27 963d 05bd 89be 9b20 9dbc
00000140: 2e34 82bd 23f4 5cbe 7595 bbbc ba29 95bd
00000150: 797c 83be a8db 8ebd 9488 5b3d deac 40be
00000160: e621 04be 02c0 823d 3ef2 5cbe bd82 46be
00000170: 045c bebd 65b5 0bbe 02ec 42bd 717b ecbd
00000180: 6f97 edbe ffbd 54be cd6e 05bd 49d6 e0ba
00000190: fa06 90bd ff29 0abd 63c3 74bd fd5c 0e3d
000001a0: dbdf 28be 8613 b23c ca3c 993d a0ee ddbd
000001b0: f35e 71bb b994 86bd 1087 2b3d 69aa 993d
000001c0: 20ab 153c 68a7 173d 8d1e 803d 06ac 743d
000001d0: 3f10 773d cb3d cabd 34f7 273d 7be5 c8bd
000001e0: 0c21 903d f715 91bd 9d4c 90bd 7380 833d
000001f0: f634 163d c40e 4f3d a9c0 56bd 6bc1 2dbc
00000200: 26c7 933d caa2 d3bb 36e2 c5bc bff8 183d
00000210: 7ae3 9fbd bd44 53bd b685 72be a073 94bd
00000220: d1d2 373c 639e 42bd a3c4 97bd 497a 68bd
00000230: 2318 6a3c e8d2 9dbe 2a84 1dbe c6d1 05be
00000240: 697e 35bd 042f 4ebc aef4 69be e17e 01bc
00000250: da1c 373d 383c d8bc 4673 753d 77d9 6fbe
00000260: 71f5 0fbe 9519 97bd e055 a9bd 64a8 38bd
00000270: 8fb5 b13c 7c02 7c3d bf7c 8cbb 33d0 31bd
00000280: 55c7 933d 1050 3abe b6e0 283d 0c43 50be
00000290: d8f0 40be af13 87bd 7d33 c93c 962a c3bd
000002a0: c5e2 20be 02e6 86be f8a5 efbd 3f2b cbbd
000002b0: 616d 6bbd b4bc 653c f9f5 37be 503e a9be
000002c0: 7676 71bd 9288 f3bd eca7 21bd 7256 4abe
000002d0: d1a9 30be c197 a33c 275c 5cbc 9752 253d
000002e0: 3bb7 b13c e122 ed3d 1023 ae3d 5336 303d
000002f0: c993 02be 5a6a 963d abd7 92bd 1551 46bd
00000300: 24d6 863d c3d4 02be 6fe9 8e3d 9a8c 82be
00000310: 2fcf 8c3c 1b66 16bd 1b08 793d 95ba 27bb
00000320: 4404 45bd fd5b 733d a8b7 f93c 3bdc 73bd
00000330: 31f2 18be bbcf cb3d 12a8 ae3d cae2 f4bc
00000340: 154b f1bc 5e6d f7bd 85dd 113d 4c61 873d
00000350: e5df 61be 4973 8c3d 0f7e d8bd 88cf aabc
00000360: 5f9e 433c 6b57 8a3d e7c3 783c 9d15 55be
00000370: 0a4b 913c c46a 443e dd68 b23c 7c38 443d
00000380: 7b7e 4a3d 8da4 cb3c eb59 2d3d 7995 af3c
00000390: 3cbc 663c 9cc5 8ebe cc31 a5bd 9ba2 75bd
000003a0: 1985 c33d 772f eebd 74b7 d7bc 6129 59bd
000003b0: 5ec2 79be 5a31 70be 65ef c13d 9324 fa3d
000003c0: 21a8 2bbb df8c 1ebd 0fae 8abe d47e 7abe
000003d0: 141e d13d ecfb ddbd 8ca5 24be 5508 51bd
000003e0: ed32 90bc 14bf 38be 553c 7c3d 1009 713d
000003f0: 52b7 a1bc e580 e7bc 2010 963d a80c c2bd

fc2.bias f4 [10]
-0.25718653 -0.17325276 -0.4174274 0.41544047 0.2840825 0.29716936 -0.22844946 0.094244815
-0.12149309 0.22361514
00000000: f4ad 83be 2c69 31be 0bb9 d5be 9db4 d43e
00000010: 4373 913e 9526 983e a8ee 69be 6d03 c13d
00000020: 5fd1 f8bd 5efb 643e
