result/model_cnn.pth (torch, 434831 bytes, 8 tensors)

conv1.weight f4 [6, 3, 5, 5]
00000000: 1dcc 82bd 0e43 d33c 0573 3fbd e5e0 debc
00000010: a13e 993d 9fc0 5abc 1658 26be bbd1 84be
00000020: 67e3 683d 589a 183e ec2f e23c 8e3a fdbd
00000030: 2869 e7bd 804d 0a3e 29c8 88bd 69f6 10bd
00000040: b964 cd3a 7be0 0d3e 0021 6e3d 210f 833d
00000050: 8dae 7a3d 738b e93d 441c 5f3d b414 e2bd
00000060: d1f4 55bd 8620 e53d de34 0d3d 5e1b 59bd
00000070: 3e8d babd d914 c5bd 61c3 ce3d f4f0 c83c
00000080: 68b8 c93d c53a 713d 8b23 9cbd 1503 953d
00000090: 2527 bd3d ebad 4f3e b8be 2e3e eeda 21be
000000a0: 2359 0e3e 69da 253e a4f6 853d a671 ebbd
000000b0: 4e29 28be d506 f43d ae4e 42bd 3c2a abbb
000000c0: 6a50 f43b cf41 56bc 949b 57bb 90f2 d8bc
000000d0: 251a e83d 9488 1d3e dde6 783d b168 72bc
000000e0: 83dd 343e f4b8 633e 986e b93d fed4 26bd
000000f0: 41a5 e6bb e003 e83d a0f3 263e 6b28 43bd
00000100: 29a8 8c3d e7da 05be d397 64bd cf4a 673d
00000110: add3 dc3c 5d03 44bd 9c99 2fbe 3808 23bd
00000120: 541b 3bbd aecd 1ebd 8830 b93d 1e51 443d
00000130: 67ef 0fbe 2679 313e c223 163d 1332 fa3d
00000140: fcd6 d7bc 56fd 71be 5e7e b4be 79e3 a33e
00000150: 10d6 693c ca1c f9bd a659 b63d ae67 01bf
00000160: 25eb 76bd db61 9b3d bc21 b4bd 9ae9 003e
00000170: 5e56 7abe e416 583d 1d0f fbbd 2504 a8bc
00000180: 239f faba f020 1abc 20e9 dfbc f621 84bd
00000190: d7c6 003e 5bfe e2bd 73ea 493e 4b9b eebd
000001a0: 3efb d2bc 2dbe 623e 2fa8 4e3d 1d31 42be
000001b0: 90a0 9e3e 3c06 a5bd 599f 963e 9b08 6f3e
000001c0: fbeb 06bf 0664 2d3e 3996 0fbd 8499 393e
000001d0: 4118 ef3e 3cfa aabd 3666 503e bfa2 23bd
000001e0: b097 903d 5df0 023e 97f7 d83d 8c87 173e
000001f0: 5434 8a3d 9291 f8bc 8e70 2cbe 9b29 bd3d
00000200: 5ebe f3bc 3056 27be c9fa cd3d e14c f0bd
00000210: 9a69 7abd b534 9b3e b55a b5bd 55f6 193d
00000220: fb16 313e 2dd3 f9be 9ca8 d73d 3d8e d4bd
00000230: ab56 c1bd 06ad a83e ca7e 50bd ad82 613d
00000240: 6e67 05be 1960 3fbe f6fe e5bb 6c16 14be
00000250: d77b a2bd 1686 bfbd a0f7 993d 1c98 9d3d
00000260: c671 923d 13da 54bd a01b ee3d 3e15 82bc
00000270: 4b52 7cbe 0358 9ebe 09e1 93be fdba debd
00000280: e4c6 05bc 4419 6abe 2404 bfbe f961 1dbe
00000290: 88bc b1bd 6894 9e3d 339a 07bc 3717 2cbe
000002a0: e51b 04be 3f0f a5bd 381e ac3d a2ba 5a3e
000002b0: a540 573e 6832 0b3e 4bc5 5d3d 737f 6f3d
000002c0: e0a9 b23d 1c36 953c ef5e f13d fd82 b7bd
000002d0: de25 2dbd 2acd 893d 4dc4 903d 5092 7d3d
000002e0: 08c2 ccbd d538 adbd 9587 20be 649b 36bc
000002f0: 1007 e3bc fc15 35bc 8495 93bd f071 02be
00000300: 030b 1ebe d0fb 2cbe 70c6 79be 7fcc f03c
00000310: c2d9 bcbd f24b 1dbe 503a b7bb 102c 07be
00000320: 30dc 1bbe 61af 193e 7a95 153d 795b 3a3e
00000330: a4be c5bd cb79 093e 4240 733e be99 c73e
00000340: ca3a 813e cc2d 823d fe7c 0dbe 0a71 863d
00000350: c277 9a3e e251 993e 447f 7d3e d8cd 6ebc
00000360: f1bb ccbd 11ed ad3d eff5 533a 6bfd 173e
00000370: bc29 09bd 5b2e b8bc 4a7c c13d 054a 8cbb
00000380: 0450 143e e6a9 263d e53c 3ebc 3694 7abd
00000390: 4f30 9cbd f61e 3dbd b826 223e e8f6 ac3e
000003a0: 1bcf 9a3e f3f9 3c3e fc00 17bd 3ea6 e13d
000003b0: 5630 d23e 1ee8 003f 74e1 493e edfc 953d
000003c0: 8541 a6bd 4c8e 2e3e 0d1c be3e 9e6b 473e
000003d0: 28a9 a1bd 8e47 1abe 5d20 94bd 4e20 913d
000003e0: 9d4a 173d c169 21be 12ee 7ebd abd5 8dbd
000003f0: 6977 38bd eaeb a23c 6a33 9fbc 2405 a5bd
-0.06386588 0.02578881 -0.04674055 -0.027206847 0.07482649 -0.0133515885 -0.1624454 -0.25941262
0.056857493 0.14902627 0.027610742 -0.12364684 -0.11299354 0.13506126 -0.066788025 -0.035391245
0.0015670276 0.13855164 0.05813694 0.0639937 0.06120162 0.11403551 0.054470316 -0.11039105
-0.05223543 0.11187844 0.034474246 -0.053004615 -0.09108971 -0.09623117 0.10095859 0.024528958
0.09849626 0.058893938 -0.07623967 0.072759785 0.09235982 0.20281188 0.17064941 -0.15806171
0.1390119 0.16196598 0.065411836 -0.11496286 -0.16422006 0.119153656 -0.047438316 -0.0052235406
0.007455875 -0.013077213 -0.0032899128 -0.02648285 0.11333112 0.15384132 0.060767043 -0.014795468
0.17662625 0.22238523 0.09054297 -0.04073047 -0.007038743 0.11328864 0.16303873 -0.047645967
0.068680115 -0.13071786 -0.055808853 0.056467827 0.026956404 -0.04785477 -0.17148441 -0.03980276
-0.04568036 -0.03877037 0.0904246 0.047928922 -0.14056168 0.1733137 0.036655195 0.12216582
-0.02634763 -0.23631796 -0.3525266 0.32009485 0.014272228 -0.12163694 0.08903818 -0.5054883
-0.060282845 0.07587024 -0.08795497 0.12589112 -0.24447009 0.052756205 -0.12258742 -0.020509789
-0.0019120913 -0.009407267 -0.027332842 -0.0645179 0.12575851 -0.11083671 0.19718342 -0.116507135
-0.025754567 0.22142859 0.05045336 -0.18964048 0.30981874 -0.0805783 0.29418448 0.23343126
-0.5270383 0.16932687 -0.035055373 0.18124968 0.46698192 -0.0834851 0.2035149 -0.03995013
0.07060182 0.12787004 0.10594099 0.14797801 0.06748262 -0.03034285 -0.16839811 0.09236451
-0.02975386 -0.16341472 0.10057599 -0.117334135 -0.061135866 0.3031365 -0.088551916 0.037588436
0.17293923 -0.48793927 0.105302066 -0.10378692 -0.09440359 0.32944506 -0.050902165 0.055056263
-0.13027737 -0.18689002 -0.007018919 -0.14461678 -0.07933777 -0.09351747 0.07517934 0.07695028
0.07150607 -0.051965784 0.11626363 -0.01587927 -0.24640767 -0.30926523 -0.28882626 -0.10875509
-0.008165095 -0.228612 -0.37307847 -0.15369405 -0.086785376 0.0774315 -0.00827651 -0.16805731
-0.12901266 -0.080595486 0.08404201 0.21360257 0.21020754 0.13593447 0.05414323 0.058471154
0.08723807 0.018214278 0.11785685 -0.08960531 -0.04227244 0.06728585 0.070686914 0.061907113
-0.09997946 -0.084581055 -0.1567672 -0.011145446 -0.027713329 -0.011052605 -0.07206252 -0.12738776
-0.15433888 -0.16892934 -0.24392104 0.029394386 -0.092212215 -0.15361002 -0.005591668 -0.13200402
-0.15220714 0.15008308 0.036519505 0.18198957 -0.096555024 0.13425367 0.23754981 0.38984483
0.25240165 0.06356391 -0.13817212 0.06564529 0.30169493 0.29945284 0.24755579 -0.014575444
-0.099967845 0.084924825 0.0008085658 0.14842765 -0.033487067 -0.022483042 0.094475344 -0.0042812848
0.14483649 0.04068937 -0.011611198 -0.0611765 -0.07626402 -0.046172105 0.15835083 0.33782125
0.30236134 0.18454723 -0.036866173 0.11018036 0.41052502 0.5035418 0.1971491 0.073236324
-0.081179656 0.1704647 0.37130776 0.19474646 -0.07893592 -0.15066358 -0.07232735 0.0708624
0.03693639 -0.15762998 -0.06223876 -0.069255196 -0.045035753 0.019887883 -0.019433696 -0.08057621

conv1.bias f4 [6]
00000000: c585 22be b051 623d af67 5d3e 43e0 e73d
00000010: 6f9b bf3c 3c14 963c
-0.15871342 0.055253685 0.21621583 0.113220714 0.023389546 0.018320195

conv2.weight f4 [16, 6, 5, 5]
00000000: 1042 46be e918 bebe 4b01 b2be 9f74 68be
00000010: b6bb 573d c62a b3bc 0aee 87be f1c0 f4bd
00000020: 1eb9 1b3e c8a5 b83e 64fc ebbc 2592 e8bd
00000030: 5ecb 983c f31d 683e c713 953e 55d3 63bd
00000040: 82af 87bd 2da8 893e ac37 5a3e f998 8a3d
00000050: ca2e 593d 95a5 a8bd dc94 aa3d 5d08 bd3d
00000060: 28fe d0bd 568b aabc 0c7a a8be 71c5 9bbe
00000070: 9716 a6bd cfdc 473e 763d e13e 8a38 9dbc
00000080: 55cc 1cbf 1c79 d3be cf7d d53b d3cd 653e
00000090: d141 893e eb00 71bd 3256 ecbd 2ed6 2a3e
000000a0: e17a f6bc f940 673e 7134 04bc 80e8 24be
000000b0: c4cb 0c3c 9b0a 353d 5dfa 983d 6d62 fe3d
000000c0: 7997 ae3d 738c ff3d 7258 043f 7301 1c3b
000000d0: ce2b 18be fa5d 46be 8a42 2d3d 09ff c73e
000000e0: 67ba b9bd 65e3 dfbe 34d3 c1be 532b 0aba
000000f0: 3412 143e 8893 9a3d fac6 d4bd 3926 04be
00000100: 2086 173e a6d5 543b da88 993d c634 593e
00000110: 414f d43d d56a c83b 717c 44bd 62ac 87bc
00000120: e7fc a03d c8f4 663d c113 53bd c7e3 14be
00000130: 3505 aebd 05b8 66be b555 f0bd 4a17 89bc
00000140: 7607 f6bb 20c6 b43d a673 023e 77ee 033e
00000150: bf21 823e c8ff 473d c64a a7bc 75cb 4bbd
00000160: 649f 91bb f0ac a53c 2905 253e d778 273c
00000170: 866c 44bd a6bb 1cbe 5fda 6f3d 7c0b c33c
00000180: e794 e13d ecb0 d13c a809 99bc 9a0d 813c
00000190: 5232 8f3c f35d 5a3d 0c1c c4be 82e5 84bf
000001a0: 57dc ebbe 834d babb 3871 77be 96c2 a6bf
000001b0: 0ca7 d3bf e6d1 35bf d899 063d c9a9 57bd
000001c0: e19e e4be 449f 1abf b2f9 adbd 5a68 23bd
000001d0: df34 123e d6e1 013e 9e65 2c3c 0062 dd3d
000001e0: 3e06 cbbd f360 c2bc 2fbe 103c 10fe 623d
000001f0: 76f7 b9b8 2717 163d 580f a0be 7d80 1bbf
00000200: d903 09bf 2c97 b4be 01d7 623c f729 6abf
00000210: 76f0 b4bf 3d17 bfbf 4335 40be 1740 d93e
00000220: 9e43 303e d01f 7b3c 35fa f7bd e79d ce3e
00000230: 9f5b 3c3e a83c 893e dc0d a53e e7bb fb3d
00000240: 7f1a 4f3e 68f4 033c f707 e8bc a40c 253d
00000250: 9820 ce3d 8bfb e63d 74a7 91be d8ac 28bd
00000260: 5607 dd3d d87c a63e 3f53 113f eb1c c3be
00000270: 2082 a4be 92b6 e6bd 3a28 5abd 5629 c13e
00000280: b61c aabd 4ae8 0fbe 3733 2ebe 77cf 03be
00000290: 2fc5 ed3d 7ef9 933d 2523 8e3c 24dd 12be
000002a0: 8612 b9be a92d 57bb 7fbb 913e d2e9 4d3e
000002b0: 5f4a a9bd 4914 6bbe 2866 a73d 2963 f63b
000002c0: 5390 b03d 13a4 623e d746 513e f8b4 db3d
000002d0: 9bb8 71bd 7209 703d 2263 183e a17e bd3d
000002e0: 12b5 863d 64e0 46be 8705 40bd f36d 933c
000002f0: e830 f33c d28c 9cbc 8a8c 06be a447 f8bd
00000300: 753e a7bd 5c47 d03c efb5 a53d 3639 2cbe
00000310: 4341 33be 86ad babd 31b2 9d3c 408d 0d3e
00000320: a486 023c 843e 87bd 1b9e 67bd 8153 1dbd
00000330: fb0d c5bd 866f 703e 6c07 fa3d 4d35 363d
00000340: 29c7 39be ccc6 01bf da6a db3e 982a 5b3e
00000350: f922 3f3d 43fa 7cbe 3e42 05bf d013 033f
00000360: 5fc2 ac3e f55a 143e 7bd8 a0be 1b07 12bf
00000370: e249 133f 7b0c 853e 08f2 3b3c cc5c 12be
00000380: f1d4 cebe 91f0 9dbe 779b bc3e ff06 4b3e
00000390: e03f cdbc 41f7 c0bd 008d 2ebf 8a36 e8bd
000003a0: 3107 c83c 2cbb 433e d9d0 343e 10dd 04bf
000003b0: 9719 7fbe ec2f 47be b11e 243e 6258 ac3e
000003c0: 8694 30bf 9f6c 64be 0d9c 573d 0b47 063e
000003d0: 0125 983e d85a 89be 30d9 153e b99d 683e
000003e0: 0970 7a3c afd0 383e 46a7 b9bd 3b78 23be
000003f0: ab6b 61be 02ca 4fbe 8069 08bd 1335 843c
-0.19361138 -0.3712838 -0.3476661 -0.22700737 0.05266925 -0.021870982 -0.26548797 -0.11950863
0.15207335 0.3606398 -0.028806873 -0.11356 0.01865166 0.22667675 0.2911665 -0.055621464
-0.06625272 0.2688612 0.213103 0.067674585 0.053023137 -0.08234707 0.08329174 0.09230111
-0.102047265 -0.020818394 -0.32905614 -0.30424073 -0.081097774 0.19517826 0.43992203 -0.019191999
-0.61249286 -0.41303337 0.0065152417 0.22441797 0.26808026 -0.058838766 -0.11539878 0.16683266
-0.03008789 0.22583379 -0.008069144 -0.16104317 0.008593503 0.044199567 0.07469628 0.12421117
0.08524985 0.124779604 0.51697457 0.0023804575 -0.1486046 -0.19371787 0.042299785 0.39061764
-0.090687566 -0.43728176 -0.37856448 -0.0005270738 0.14460069 0.075476706 -0.10389514 -0.12905206
0.14797258 0.0032475977 0.074968055 0.21211538 0.10366679 0.006116251 -0.04797024 -0.01656169
0.07860737 0.056385785 -0.05153251 -0.14540015 -0.08497087 -0.22531135 -0.11735097 -0.016734738
-0.0075082136 0.08826852 0.12739429 0.12883936 0.2541637 0.048827916 -0.020421397 -0.04975458
-0.0044440497 0.020224065 0.1611525 0.010221682 -0.04795506 -0.15305957 0.058557864 0.023809187
0.11014729 0.025597058 -0.018681362 0.015753556 0.01748005 0.053312253 -0.38302648 -1.038254
-0.46066543 -0.0056855096 -0.24164283 -1.3028133 -1.6535354 -0.71023405 0.03286156 -0.052652154
-0.44652465 -0.6039927 -0.08494891 -0.03989444 0.14277981 0.12683806 0.010522274 0.10809708
-0.099133 -0.02372787 0.008834406 0.055418074 -8.8675806e-05 0.036643174 -0.31261706 -0.6074293
-0.53521496 -0.35271585 0.013845206 -0.91470283 -1.4135883 -1.4928967 -0.18770318 0.4243171
0.17213294 0.015327409 -0.1210827 0.40354845 0.18394326 0.2680409 0.32237136 0.12291699
0.20224951 0.008053876 -0.02832411 0.04029526 0.100648105 0.11278447 -0.2844807 -0.04118046
0.10792415 0.32517123 0.5676765 -0.38108 -0.32130527 -0.11265291 -0.05326102 0.3772685
-0.083062574 -0.14053455 -0.17011724 -0.1287211 0.116098754 0.07225321 0.017350743 -0.14342171
-0.36146945 -0.0032833612 0.2846336 0.20108727 -0.08266138 -0.22956957 0.08173782 0.007519145
0.08621278 0.22132902 0.2043718 0.107278764 -0.059013944 0.058602758 0.14881566 0.09252668
0.06577505 -0.19421536 -0.04688027 0.017996764 0.029686406 -0.019110117 -0.13139549 -0.12123039
-0.081662096 0.025424652 0.08091342 -0.16818699 -0.17505364 -0.09115128 0.019250007 0.13823414
0.007966671 -0.06603721 -0.056547265 -0.038409714 -0.09621807 0.23480043 0.12208447 0.044484425
-0.1814238 -0.50693965 0.4285496 0.21402967 0.046664212 -0.24704842 -0.520542 0.51202106
0.33742043 0.14487822 -0.31415161 -0.5704209 0.5753461 0.25986084 0.011471279 -0.14293212
-0.40396836 -0.308476 0.3683736 0.19826888 -0.025054872 -0.0942216 -0.681839 -0.113385275
0.024417492 0.19114369 0.17657794 -0.51899815 -0.24912106 -0.19451874 0.16027333 0.3366118
-0.6897663 -0.2230706 0.052639056 0.13113038 0.29715732 -0.2682712 0.14633632 0.22716416
0.0152855 0.18048356 -0.09065108 -0.15963833 -0.22013728 -0.20291904 -0.033303738 0.016138589

conv2.bias f4 [16]
00000000: ef33 b83e c660 1bbc c8a4 3cbc 8287 0cbf
00000010: f0ef 33be c339 9b3d 085b 283f 013d 0a3d
00000020: 097f f63e df2c 263f 5cfd d3be 2b6b 50be
00000030: 7e82 c23c cbf4 ec3d c123 4c3d af71 65bd
0.35977122 -0.009483522 -0.011513896 -0.5489427 -0.17571998 0.075793765 0.657639 0.033749584
0.48143795 0.6491222 -0.41404235 -0.20353381 0.023743864 0.11570128 0.049838785 -0.05601662

fc1.weight f4 [256, 400]
00000000: 305e 1ebd 8189 0cbc 0e11 efbc 9bb4 203e
00000010: 892d 07bc e1fc e63d 32d8 a7bd 1a14 d03c
00000020: f889 5f3e ba42 6f3d baf8 12be 1aa4 38be
00000030: da3e 953d 01be c7bd f569 843e f6e0 3abd
00000040: 2805 8dbc 4303 18be e938 06be 74e4 983e
00000050: fb98 1fbd 9519 95be 0237 33bd 5f3f 8a3e
00000060: fce4 843e cc4b 99bd a293 9d3e c19b f03e
00000070: 3822 8c3e d412 f93d aceb 303e e0b6 ad3e
00000080: 58b6 243e 5d19 0f3e 5328 c4be 05ab 053c
00000090: 7d09 603d fe2d 143e 6ca9 383e b532 13bf
000000a0: 30a6 2ebd 8726 2fbe c9ed 893e 46e3 b9be
000000b0: 21ee 1abf 3310 0d3d 1a9b d63d 104c d53e
000000c0: 867b 5c3d 854f 92be da49 8b3d 6d63 5d3e
000000d0: 31ad ad3e 47e8 323c 4944 9d3d 85ff 21be
000000e0: 7b2e 673d b104 043e fc4d 8b3e 2b19 ba3d
000000f0: a3cd 99be 23db c03e 3dc3 d33e 2a38 253e
00000100: 3d87 0d3e 7691 49be 706f 5f3e 3b27 ce3e
00000110: a81e 063e d254 853e 4df6 53be 10e5 40be
00000120: 17f8 edbd 4a0e 08bf 19cf 73bd aa27 83bd
00000130: 4d7a 7d3e 652e 42bd 6094 fabd a3a6 e63d
00000140: c436 56be ccbc a33e 1910 473d fa43 34be
00000150: afdf a8bd a35f 9ebe 9555 bf3d fc7a 743e
00000160: 8823 38be 83cc 3ebe 4b49 debe 4f5a 66be
00000170: b148 2c3e 6330 9fbd a9f5 a5be 2bd1 333e
00000180: ef6f 15bc 4e05 c63e 8679 62bc 01b1 95be
00000190: 5ac0 9bbd bb5c 663e 85ca 103f ee07 f6bc
000001a0: 20b5 51bf e717 14be 4601 61bd a8c1 583e
000001b0: 4be5 91bc c40a 41bf ad9c eabd 6827 dbbd
000001c0: 06bd 9dbe 42f5 dd3d 9941 fa3a 8b23 9dbd
000001d0: 65f8 fdbd 3abe c6be a01a 9abe fdea 503e
000001e0: 173a 10bd cee3 823c 0192 8dbe 24dc 22be
000001f0: 81a0 cc3d 303e 7139 46a1 37be d5c4 b7be
00000200: aae7 dbbe 7b97 923d 1fb1 823e 82c3 313e
00000210: 867d b33e af4b 7d3e 1300 883d fbbc 8a3e
00000220: 5367 ce3e d6ac 043e 3453 8c3d 602b bdbe
00000230: ab80 2bbe 8472 b5bd 2092 cebe bf32 d9be
00000240: 243b 58bf b468 563e dc08 183e 46b6 3dbc
00000250: c258 44be e822 1ebf a389 d73d 6fa3 a6be
00000260: cca9 8ebe 9a18 66bb 6670 d73e f633 623e
00000270: 9d18 833e 8008 a83d 0f2b ee3d fedc 953e
00000280: 6b4f ca3e 6525 943e a340 abbe c25f 85be
00000290: a38a 603d 7329 da3e 1356 fc3d 2d93 96be
000002a0: 173e 34be 6095 65be 5ca5 1d3d e61a 18bf
000002b0: c19c b5be c213 923e cb4a 903e 2448 f83c
000002c0: f6de fdbd dbaa bfbd 2b34 a9be eba7 25bf
000002d0: a3a9 243e b3ee 6bbc 08bc 65bd 0b8a efbe
000002e0: 87b3 b8be aa62 41bd ab21 1ebe 3d7d 9b3d
000002f0: ef74 4dbe 8ef0 14bf 0183 11be 2999 f73d
00000300: 0604 153e 0128 603e f8f0 a9be ba2e aa3e
00000310: 97fb ab3e 4543 bf3e ecbf b73d 7132 283d
00000320: cfaa 6a3e 560b 99bd b876 1e3e b462 b13d
00000330: e814 033f d43c a0bb 0c12 363e 7890 6f3e
00000340: c9e6 30bd b328 55be cdf8 673d 589c bc3e
00000350: 18a6 633e 8df0 e1be 56a4 80be fdb6 d83d
00000360: 498d 8d3e 7ce2 663d c427 c2be 3afc 41bf
00000370: 5dcc c23e 59a6 233e 6795 bb3d 62fd 44be
00000380: 89a8 62bf 6da5 97bd 1e54 21be 6bed babd
00000390: 56a3 f23d ef91 7f3d 1eec 90bd b0f2 1fbe
000003a0: 5a4e f2bd 3caf 963d 997d bc3d 1853 193e
000003b0: f3d1 333e 0714 853e 74e7 c53d e0b2 d03c
000003c0: 11d9 043d cbac 193e 26b4 1d3e 8061 babd
000003d0: 1306 54be bee6 0b3e d4a6 0c3d d402 5a3e
000003e0: 1b48 d4bd 93d0 0abe 036c 103e 5303 e93e
000003f0: 7bb3 123e 8f15 afbe d297 80be 3527 5f3e
-0.038664043 -0.008577705 -0.029182937 0.15693896 -0.0082506025 0.112787016 -0.08195533 0.02540021
0.21829975 0.058413245 -0.14352694 -0.1803135 0.072873786 -0.09753037 0.2586209 -0.045624696
-0.017214373 -0.14844994 -0.13107647 0.29861796 -0.038964253 -0.2912108 -0.04375363 0.27001473
0.2595595 -0.0748516 0.30776697 0.4699383 0.27369857 0.12161794 0.17277402 0.33928585
0.16085184 0.13974519 -0.38312015 0.00815845 0.05469655 0.1447067 0.1803338 -0.5749925
-0.042638958 -0.17104541 0.26939228 -0.36306208 -0.60519606 0.034439277 0.10478802 0.41659594
0.05382874 -0.28576294 0.068011954 0.21619959 0.33921197 0.010919637 0.0767904 -0.15820129
0.05644081 0.12892415 0.27207935 0.09086832 -0.300397 0.37667188 0.41359892 0.16134706
0.1382112 -0.19684395 0.21819854 0.40264305 0.13097632 0.26041275 -0.20699425 -0.1883738
-0.11619585 -0.53146803 -0.059523676 -0.0640405 0.24753685 -0.047407527 -0.122353315 0.11262252
-0.20919329 0.31979978 0.048599336 -0.17604056 -0.08245789 -0.3093234 0.09342495 0.2387504
-0.17982304 -0.18632703 -0.43415293 -0.22495387 0.16824605 -0.07772901 -0.32413986 0.1756026
-0.009120925 0.38675922 -0.013822919 -0.29236606 -0.076050475 0.22496311 0.5655902 -0.030033078
-0.81917 -0.14462243 -0.054932855 0.21167624 -0.01780953 -0.7540705 -0.11455665 -0.107008755
-0.30808276 0.10837795 0.0019093036 -0.07672795 -0.12400893 -0.38817006 -0.30098438 0.20402141
-0.03521165 0.015977766 -0.27650455 -0.1590429 0.09991551 0.00023006718 -0.17932615 -0.35892358
-0.42950183 0.07157799 0.25525758 0.17359737 0.35056704 0.24735902 0.06640639 0.27097306
0.40313205 0.12956557 0.06851807 -0.36947155 -0.16748302 -0.08859733 -0.4034586 -0.4242153
-0.8446524 0.20938379 0.1484713 -0.011579102 -0.19174483 -0.6177201 0.10524299 -0.32546565
-0.2786392 -0.0035109879 0.4207794 0.22090134 0.25604716 0.08204746 0.116293065 0.29270166
0.39513716 0.2893478 -0.3344775 -0.2604962 0.054819714 0.42609748 0.12321105 -0.2940916
-0.1760181 -0.22420263 0.038487777 -0.59416044 -0.35471156 0.285307 0.28182063 0.030307837
-0.12396042 -0.0935876 -0.33047614 -0.6470935 0.16080336 -0.014400172 -0.056087524 -0.46785006
-0.36074468 -0.047213234 -0.15442531 0.07592247 -0.20064138 -0.5817956 -0.1421013 0.1208976
0.14552316 0.2189026 -0.33191657 0.33238775 0.33590385 0.3735601 0.08972153 0.04106373
0.22916721 -0.07472865 0.15474975 0.08661404 0.51203775 -0.004890064 0.17780322 0.23394954
-0.043188844 -0.20816307 0.05663376 0.3683803 0.22231328 -0.44128838 -0.25125378 0.10581777
0.27646855 0.056368336 -0.37920964 -0.7577549 0.38046542 0.15981425 0.091593556 -0.19237283
-0.88538414 -0.07404599 -0.15754744 -0.09127315 0.1184756 0.062395032 -0.07076286 -0.15619922
-0.118313506 0.07357642 0.09203643 0.14973104 0.17560558 0.25991842 0.09663287 0.02547592
0.032433573 0.15007322 0.15400752 -0.09100628 -0.20705442 0.1366224 0.034338787 0.21290141
-0.103653155 -0.13556127 0.14103703 0.4551035 0.14326279 -0.34196135 -0.2511583 0.217923

fc1.bias f4 [256]
00000000: 0840 853c 82b2 153f f02e e5ba de84 3dba
00000010: 1325 01bf dac5 373f 0e4c 4d3f 5ea8 853f
00000020: 24dd efbd 7f54 9b3e 8803 c93f ce48 36bc
00000030: 8796 2d3f 4a8a 4e3f 9c02 023f 38a0 393f
00000040: 73f2 e3be d9c5 dd3f 36d9 863e 23bf fa3e
00000050: 061b 8abc efa9 423e e23f 7dbd d2de 57be
00000060: 865e 68bd 73b3 d73d d8fa 563d 9517 663f
00000070: 4c17 30bd 540a 5fbd b65b 08bd b22d 4fbb
00000080: 1c5f b4be e723 753f 9bc0 5a3f 26cd b93e
00000090: c174 b43e 83ea ec3e 76d7 6bbb 10fd f2ba
000000a0: 21b0 e5bb 5902 d6be f988 3abf 038f 643f
000000b0: 4d3d 0cbf 67a6 3abd cd5e be3e 7246 ebbc
000000c0: 5546 163f f08e dc3c 031a 913f c6dc 923f
000000d0: 8eb7 f83e a956 d0bc 5252 d33e db74 fabc
000000e0: 5c12 94be 0103 c73d 02aa 83bd 2b3c a43c
000000f0: e1e5 9b3f 4bd7 8e3f 5c97 53bd b841 3b3f
00000100: 8ebd 18bc bd2f 8b3e 3870 993e b272 3fbd
00000110: 1f99 01bc 834a b43f fb28 bb3c 4a61 1d3f
00000120: fdc9 90bb ddd3 223d fde2 9b3f 2f9a 253f
00000130: e557 64bd d79c 373f c991 66bd 5445 c5bd
00000140: 0dc5 58bd 11f5 6dbd d049 e73e 3bb2 223f
00000150: 7b35 0c3f 0d33 a73c f4bf f23e f2f8 2c3f
00000160: 26a0 953c 9726 873d d6b7 3b3f bbf6 9abd
00000170: 1c7b 7a3f ede6 fb3e 88fd 5ebc f073 87be
00000180: 9b97 8f3e 0f85 95bc 3774 863c f981 a4be
00000190: 2e8c a7be 12dd 073d e570 cd3d f2ac a4bd
000001a0: 6e8d c1bd 8b89 493d 4c38 d73f fcac 7bbd
000001b0: cd44 133f 03c4 1a3f e1f5 163f 1f9c 85bc
000001c0: 977a 84bf 9545 6bbb e85b 643f f3cc 873e
000001d0: fa26 bf3e 84ca 0abd 83c6 7c3f 4341 1a3f
000001e0: 5814 55bd c3d6 743e b7ec 56bc 2ac1 c2be
000001f0: a562 4e3e 0d5c ffbd 0ab5 a93e 4ca8 7cbf
00000200: 9e19 2b3c 6165 ebbc dec7 913f 94c9 ecbc
00000210: ceb3 86be 2cea 14bd d5c9 c4bd ca60 b13f
00000220: 6a02 bcbd 3648 ed3e 0e82 3b3f 894d c33f
00000230: 2c6e c83c 63a5 85bd 7879 bbbb 4583 c3bc
00000240: e58f 673d ff42 d53f bf79 a3bd 7c3d 1dbd
00000250: 5e52 b0bd 36ee 8dbd 2d5b 9dbd 8b6e 023f
00000260: f215 81bd c90e 053d 6a69 b3bd 3553 033f
00000270: 2c22 8e3e fa7b 8b3e bb19 e93f 2c0f 5dbd
00000280: d9bd 15bd e934 bdbd 3110 c83f 970c 08be
00000290: 486f 273e 3c3f aebe dc28 403f dd9e 5f3c
000002a0: 4e90 ea3e 1307 adbc 3426 293e f308 d53f
000002b0: 30b1 45bd 6675 173c f515 333f 792b 43bd
000002c0: 8fb1 4b3c 5500 90bd 1b76 383d bd2d 4fbd
000002d0: abb3 a6be 12f7 7f3f bf4b 5abd 84b6 1ebf
000002e0: c95e 953c 94b0 acbc eae6 f8bc 9290 49bc
000002f0: 6cc6 14bf 9455 b23e d037 0fbd c127 1a3f
00000300: d4d7 8c3f 7216 50bf 7a9e 94bd c051 f6be
00000310: ed8c 073c 60fb 2a3f 3ab9 60bd 4cd1 053f
00000320: ec3c 4e3f 1583 1dbf 3a21 13bd dc18 0b3f
00000330: 75f4 58bd e9d2 ddbc 713b 383c d337 113c
00000340: 1791 083e 252b 053e 84cb 34be 0504 933e
00000350: f694 d83d d50c 8dbf 8776 3d3f 06c1 3b3b
00000360: 9e22 9bbd f828 efbc c8ee fdbc 6e17 403f
00000370: 1b61 5abd 16ca 38bc 2fe4 94bd d208 5ebd
00000380: 68bb c83f cb9c 45bc fad6 8c3e 42cd b43b
00000390: 864a 3a3f 2e7b 22be 3dae 98be 9ed2 efbc
000003a0: 4b8a 063b 7253 68bf f498 843c 3d33 4dbc
000003b0: 3235 dcbe afe2 6c3b 8ad9 04bf fc9f 43bd
000003c0: 8f60 5ebf dd3c 53bc 8434 9ebe 1fa7 0fbd
000003d0: 27af 1cbf cb3c 3bbf 79c7 b53f 95bf 3e3f
000003e0: 3726 833f 525e 6cbe 1d3b 1a3f 2c60 b5be
000003f0: 3ca5 193b 6e8a bcbd f4b5 f33e aec6 85bd
0.016265884 0.58475506 -0.0017485302 -0.00072295766 -0.50447196 0.7178627 0.80194175 1.0442007
-0.11712101 0.30337903 1.5704203 -0.011125756 0.6780781 0.8067976 0.5078523 0.725101
-0.44520912 1.7326003 0.26337594 0.4897395 -0.016858589 0.19010137 -0.0618285 -0.21081093
-0.05673077 0.10532274 0.052485317 0.89879733 -0.042990968 -0.05445321 -0.033290587 -0.003161293
-0.35228813 0.9575791 0.8545014 0.36289328 0.35245326 0.46272668 -0.003598658 -0.0018538553
-0.0070095216 -0.41798666 -0.72865254 0.8928072 -0.5478104 -0.04556885 0.37181702 -0.028720114
0.5870107 0.026923627 1.1336063 1.1473625 0.4857754 -0.025431948 0.41273743 -0.0305733
-0.28920257 0.0971737 -0.06428911 0.020048222 1.2179528 1.1159452 -0.05165802 0.73147154
-0.009322537 0.2718486 0.2996843 -0.04674024 -0.007910042 1.4085239 0.02284669 0.61476576
-0.00441861 0.03975283 1.2178646 0.6468839 -0.055747885 0.71723694 -0.056291375 -0.09632364
-0.052922297 -0.05809504 0.45173502 0.6355321 0.54769105 0.020410085 0.47412074 0.6756736
0.018264841 0.06599157 0.73327386 -0.07566591 0.978441 0.4919962 -0.013610251 -0.2645564
0.28045353 -0.018251924 0.016412837 -0.3213041 -0.32724136 0.033169813 0.100312985 -0.08040799
-0.09450804 0.049203437 1.6814055 -0.061444268 0.57526857 0.6045534 0.5896893 -0.016309796
-1.0349911 -0.0035899628 0.8920274 0.2652355 0.37334424 -0.03388454 0.98740405 0.6025583
-0.052021354 0.2391005 -0.013117961 -0.38037997 0.20154817 -0.12468729 0.33145934 -0.986943
0.010443119 -0.028734865 1.138912 -0.028904714 -0.26309055 -0.036356136 -0.09608809 1.3857663
-0.09180148 0.46344155 0.7324532 1.5258037 0.024466597 -0.06525686 -0.0057212673 -0.023866305
0.056533713 1.666107 -0.079822056 -0.038388714 -0.0860946 -0.06930201 -0.07683406 0.50949925
-0.06303014 0.032484803 -0.087603405 0.5129884 0.27760446 0.27243024 1.8210977 -0.053969547
-0.036558006 -0.092386074 1.5629941 -0.13286053 0.16351044 -0.3403262 0.75062346 0.013648716
0.4581322 -0.021121537 0.1651848 1.6643356 -0.048264682 0.009244299 0.6995538 -0.04764888
0.01243247 -0.07031313 0.04503451 -0.05058073 -0.3255895 0.99986374 -0.053294893 -0.61997247
0.018233674 -0.021080293 -0.030383546 -0.012302535 -0.5811527 0.34830916 -0.034965336 0.6021691
1.1003366 -0.8128425 -0.072567895 -0.48109245 0.008273345 0.6678982 -0.054864146 0.52272487
0.8056171 -0.6152814 -0.03592036 0.5433481 -0.052967507 -0.027078109 0.011244641 0.008863407
0.13336597 0.1300474 -0.1765576 0.28714004 0.10575287 -1.1019541 0.74008983 0.0028648986
-0.07574962 -0.02919434 -0.030997649 0.7503575 -0.053315263 -0.01127865 -0.07270085 -0.05420763
1.5682192 -0.012061308 0.27507764 0.0055176327 0.72769964 -0.15867302 -0.29820433 -0.029275235
0.0020529206 -0.9075233 0.016186215 -0.012524423 -0.43009335 0.0036145856 -0.5189444 -0.047759995
-0.86866087 -0.012892929 -0.3089944 -0.03507149 -0.6120476 -0.7313964 1.4201499 0.7451108
1.0246037 -0.23082855 0.6024645 -0.35424936 0.0023444435 -0.09206091 0.47599757 -0.06532036

fc2.weight f4 [10, 256]
00000000: 20eb bfbc f41a aebb b1f0 d6bc e4c4 c63b
00000010: 9d24 853d aef8 423d e485 8fbd 6f2c 81be
00000020: 8591 823d fe9a cdbd 62f8 6ebd 840a 3f3d
00000030: 5732 1cbe 0720 1dbe d88e 95bd cb88 01be
00000040: 38fc 83bd 8a2c a9be be0c 7bbd 7ee2 f6bd
00000050: f000 14bd 4ae3 8a3d 572f 88bc 05c6 dd3c
00000060: 8f0c 61bc 0901 5cbe e72b 6fbd 1409 903d
00000070: 0880 833d 39c9 d7bb cbf8 17bd bf09 ec38
00000080: c097 00be 6893 80bd 220b ef3c a61e 18be
00000090: 1930 9cbd c805 2c3d 6556 80bd a08b cebc
000000a0: fb3e 4cbe 9dac 6b3d e426 a93d 8eab 0abe
000000b0: f4dc 973d 3d72 1ebd db2c 343d 9c95 e0bc
000000c0: fd83 b7bd 7f6b 46bb de7a 5d3d 0b24 88be
000000d0: 3d1a 45be 13e5 82bd 0d7d ee3d 6df5 0cbd
000000e0: 3b3c d8bd 87a9 283d b527 b13b 0806 fbbc
000000f0: f8b9 ae3d e9a1 2ebe c535 f03c 151d 50be
00000100: 0ba1 6cbc d7e8 96bd 76f6 04be 40af b6bc
00000110: 6ab3 5cbc 36fa 5dbe 675f 4bbe 9375 8ebd
00000120: 8f07 233d 824e 0b3d 25d7 5c3c 8773 c83c
00000130: 0f48 48bc 4883 17bd 28fc b33c 53a0 573d
00000140: 522a 623c 02c1 84bd 7c5a 00bc bf0f 053e
00000150: 3796 44be cbdd a4bc d6c4 d6bc 1bc5 17be
00000160: aa3e 093d a023 80bd 1c03 5abe 8e49 37be
00000170: 48bb 83be aba4 463d a856 39bc a09a 463e
00000180: 2c1c 63be bded 323d 1d20 95bc 3171 633d
00000190: 7e2e ae3d a219 abbd 1441 a8bd b320 36bc
000001a0: d87d f1bd 9651 a23d 26f3 35be b4ed f43c
000001b0: 758d 3fbe 5a23 4b3d d839 a6bd b328 933b
000001c0: 98d2 9b3d 0a61 453b ff63 46be 265f 943d
000001d0: 3b6f abbe 8218 c53c bf89 b6bd 0259 9f3d
000001e0: 945c 6cbd 82a5 c7bd 17d0 27bd bf40 bcbd
000001f0: a122 363c 6733 543b 5a27 98be 12f9 8d3d
00000200: e0d8 a0bc 3b1b 8abd ec86 8d3d b44f f6bc
00000210: 9cf8 b7bd 83a0 2ebd c205 e7bd 6446 48be
00000220: 3b18 913c 130d 243d f200 253d 1a39 a7be
00000230: 6cc2 673d 717b 883b dc07 d1bc c1ec 6bbd
00000240: a9a2 17be 90fe 54be 660f 563b bea6 10bd
00000250: 3642 173d 1371 8abc 3258 f7bb a1ff bf3b
00000260: f11c f1bc 6ed1 07bd 4517 69bd 2924 e3be
00000270: 3f1c af3d 9bd7 803d 0994 c83c 7c36 d3bc
00000280: b37a 63bd 3092 55bd e17c d9bd 2ad6 913d
00000290: 48c9 99bd 343b a4bd 4d64 a33d 2cfd cd3c
000002a0: f7f0 aa3d 5b52 ccbc 01af 7e3d 93b5 dabd
000002b0: 3e48 40bd caba eabc b149 a93c 3ee1 6bbd
000002c0: aa07 26bd 6b31 a93d 858b a43d e831 68bc
000002d0: d6bb 2cbd 29bb 93be 1a5f 83bd 328c 4c3d
000002e0: 098f 94bb 1230 053c e58f f83b be9b 663c
000002f0: d522 2a3d bc76 4b3d 6e27 4dbd 3eed e0bd
00000300: 9898 20be 3b0c 593c 6396 903c 1ff3 9f3d
00000310: e4f3 46bd 40f6 62bd 8175 5b3d 518c 063e
00000320: 99da 173d 94ff 793d 1654 29bd 93ff 58be
00000330: 75cc ddbc f956 c2bc d2af b3bd 0c93 93bd
00000340: 6acd ad3d 3d2a 3c3d cee8 a93d 4042 3fbe
00000350: 5a3b 6d3c e565 c23c b656 4ebe 1b84 26bd
00000360: 4271 b53d 2ebe 7bbd 582d 34bd 8f03 2ebe
00000370: 1cdb a4bd df0a 9cbd a267 efbc 3253 8dbc
00000380: c7fe e6bd db20 26be 2ca1 7dbb 325a 49bb
00000390: 62d7 ccbd 6c9d 953d d2e0 493d 27b5 443d
000003a0: ffc1 283c e297 583d 8538 463c 4fa0 00bd
000003b0: d006 ae3d da84 55bc 4e12 5f3d 296a d13c
000003c0: 4848 fa3c 17d8 ee3b 644d 973d 01ea bfbc
000003d0: 9a5d 76bb 5833 073e 74ab fcbd 33bd fcbd
000003e0: b2ef dcbd 99bb dabc c60b 25be ebf5 95bd
000003f0: 0cd3 fd3b bdaa 693d 03c7 8cbd 384d 383d
-0.023427546 -0.0053132717 -0.026237817 0.0060659517 0.06501124 0.04760044 -0.070079595 -0.25229213
0.06375412 -0.10039328 -0.058342345 0.046640888 -0.15253578 -0.15344249 -0.07302636 -0.12649839
-0.06444591 -0.33041793 -0.06129145 -0.12054919 -0.036133707 0.06781633 -0.016624136 0.027071962
-0.013735904 -0.2148477 -0.058391478 0.070329815 0.064209044 -0.006585267 -0.0371025 0.00011255172
-0.12557888 -0.062781155 0.029180113 -0.14855441 -0.076263614 0.0419977 -0.062664784 -0.025213063
-0.199459 0.057537664 0.08259371 -0.13542005 0.0741519 -0.038683165 0.04398809 -0.02741509
-0.08960722 -0.0030276475 0.054072253 -0.2659 -0.1924829 -0.06391349 0.11644945 -0.034413744
-0.10558363 0.0411773 0.005406345 -0.030642524 0.085315645 -0.17053951 0.029322514 -0.20323594
-0.0144426925 -0.073686294 -0.12984642 -0.022300363 -0.01347051 -0.21677479 -0.19860612 -0.06956019
0.03980213 0.034010418 0.013479029 0.02446915 -0.012224211 -0.036990434 0.021970823 0.05264313
0.013804035 -0.06482126 -0.007834073 0.12994288 -0.19197927 -0.02012529 -0.026216906 -0.14821284
0.033507027 -0.06256795 -0.21290249 -0.17899153 -0.25728822 0.048496883 -0.011312164 0.19394922
-0.22178715 0.043683756 -0.01820379 0.05552787 0.085049614 -0.083544984 -0.08215538 -0.011116195
-0.11791581 0.079257175 -0.17768535 0.029898502 -0.18706305 0.04959426 -0.081165016 0.0044909357
0.07608527 0.0030117654 -0.19374083 0.072447106 -0.334833 0.024059538 -0.08912992 0.07780649
-0.057705477 -0.09748365 -0.040969934 -0.09192037 0.011116655 0.003237927 -0.29717523 0.06932272
-0.019634664 -0.06743475 0.069105 -0.030067302 -0.08982965 -0.042633545 -0.11280395 -0.19558102
0.01771175 0.04005153 0.040284105 -0.32660753 0.0565819 0.004165106 -0.025516443 -0.057598833
-0.14808144 -0.20800233 0.0032662987 -0.035315268 0.036928378 -0.016899621 -0.0075483555 0.0058593308
-0.029432746 -0.033158712 -0.056906957 -0.44363526 0.085503094 0.062911235 0.024484651 -0.025782816
-0.055536937 -0.05214137 -0.10619522 0.07120927 -0.075090945 -0.080191046 0.07978115 0.025145136
0.08346742 -0.024941614 0.062178615 -0.10679164 -0.046943896 -0.028653521 0.020665022 -0.057587855
-0.040534653 0.08261379 0.08034424 -0.014172055 -0.04217132 -0.2885373 -0.064146236 0.04993839
-0.0045336527 0.008129137 0.007585513 0.014075218 0.041537125 0.04967378 -0.05008643 -0.1098275
-0.1568321 0.013247545 0.017649835 0.078100435 -0.048572436 -0.055410624 0.053578857 0.13139464
0.037073705 0.061034754 -0.041339956 -0.21191244 -0.027075032 -0.023723112 -0.087737694 -0.07205781
0.08486445 0.04593872 0.08296357 -0.18677616 0.014479483 0.023730228 -0.20150265 -0.04065333
0.08859493 -0.061460666 -0.043988556 -0.16993545 -0.08049604 -0.07619261 -0.02922422 -0.017251585
-0.11279064 -0.16223471 -0.0038700802 -0.0030723927 -0.100020185 0.073054165 0.04928667 0.048024323
0.0103001585 0.05287922 0.012098436 -0.031402882 0.08497393 -0.013032163 0.054460816 0.025563316
0.030552045 0.0072889435 0.07387808 -0.023427011 -0.0037592412 0.1320318 -0.123373896 -0.123407744
-0.10787906 -0.026700782 -0.16117772 -0.07322296 0.007746106 0.057047594 -0.06873896 0.044995517

fc2.bias f4 [10]
00000000: 17e3 c3be 761c 82be ce3a f0be 19d5 b33e
00000010: ea85 b43e 1f1f 6f3e 279b 44be b84d 633e
00000020: 4c7b 86bd 2a74 613e
-0.38259193 -0.2541234 -0.46919864 0.35123518 0.35258418 0.23351716 -0.19199811 0.22197616
-0.06566486 0.2201697
