result/model_cnn.pth (torch, 440591 bytes, 8 tensors)

conv1.weight f4 [6, 3, 5, 5]
0	0x3df7a978	0.120928705
1	0x3dc5e315	0.09662453
2	0x3e883f0a	0.26610595
3	0x3ca8df6f	0.020614354
4	0x3bfade8a	0.0076559233
5	0xbd1ef724	-0.03880991
6	0xbee30704	-0.4434129
7	0xbee618b9	-0.44940737
8	0xbe8f1294	-0.2794386
9	0x3ddf12a2	0.10892226
10	0xbd862d9c	-0.06551668
11	0x3d26d713	0.040732455
12	0xbd3dc840	-0.04633355
13	0x3d727d8c	0.059201762
14	0x3c2feea1	0.010738046
15	0x3c717398	0.014737032
16	0x3e787f7f	0.24267386
17	0x3eba1b3f	0.36348912
18	0x3e4f601d	0.20251508
19	0x3cf74110	0.030182391
20	0x3bda634e	0.00666467
21	0x3d794a21	0.06086171
22	0xbe273d35	-0.16331942
23	0xbd4f97bc	-0.050681815
24	0xbdc8d258	-0.09805745
25	0x3e20f075	0.15716727
26	0x3c360e54	0.0111118145
27	0x3e427354	0.18989307
28	0x3ba9f289	0.005186383
29	0x3cd4f5a1	0.025996031
30	0x3c6042cb	0.0136878
31	0xbef70a7a	-0.4825018
32	0xbf0e3a65	-0.55557853
33	0xbeb737e5	-0.35784832
34	0x3e6181dc	0.22022194
35	0x3b48ca8c	0.0030638305
36	0x3e0cc84e	0.13748285
37	0xbd8ef7dd	-0.0698087
38	0xbd918ea4	-0.07107285
39	0xbd032e71	-0.03202671
40	0xbde2f315	-0.110815205
41	0x3df4b43a	0.11948438
42	0x3ec4c06a	0.3842805
43	0x3e956bbf	0.29183766
44	0xbe0e7e41	-0.1391535
45	0x3cfc238a	0.030778665
46	0xbdaa90c4	-0.08328393
47	0x3d6b6a5d	0.057474483
48	0xbc9847b2	-0.018588874
49	0x3d9f5700	0.07780266
50	0x3de48ac8	0.11159283
51	0x3e4212ca	0.1895248
52	0x3ea6021f	0.32423493
53	0x3e68096f	0.22659849
54	0xbde4e942	-0.11177303
55	0xbe1dff18	-0.15429342
56	0xbed80ca4	-0.42197144
57	0xbef71fb7	-0.48266384
58	0xbe958e82	-0.29210287
59	0x3e0b607a	0.13611022
60	0x3d8e1b0b	0.06938752
61	0x3db111ff	0.086460106
62	0xbe3d15b7	-0.18465315
63	0xbe8143e6	-0.25247115
64	0xbd093fe4	-0.033508196
65	0xbd1c9df6	-0.03823658
66	0x3e26a825	0.1627508
67	0x3eb0a89d	0.34503642
68	0x3e6a812b	0.22900836
69	0xbe4b3662	-0.19844964
70	0x3d15866e	0.036505155
71	0x3dc3cfe2	0.09561135
72	0x3ce8e10c	0.028427623
73	0x3d4162b6	0.04721328
74	0x3cf2acbb	0.02962338
75	0xbd0068c4	-0.031349912
76	0x3d3a5eca	0.045500554
77	0xbd4fbb72	-0.05071587
78	0xbe0bae12	-0.13640621
79	0x3cc67557	0.024225874
80	0x3d242a36	0.040079318
81	0x3daf1244	0.08548406
82	0xbcd3ba41	-0.025845649
83	0xbdaf3de6	-0.08556728
84	0xbd05006f	-0.032471117
85	0xbcb50d08	-0.02210094
86	0x3e7efcda	0.24901143
87	0xbd721afd	-0.05910777
88	0x3d475fc6	0.04867532
89	0x3d391403	0.0451851
90	0xbd0cec27	-0.0344049
91	0x3e3139df	0.17307232
92	0x3e63b1ca	0.2223579
93	0x3e0a34bf	0.13496684
94	0x3e6b8002	0.2299805
95	0x3d364116	0.044495665
96	0xbbbcb539	-0.005758908
97	0x3e01f248	0.12690079
98	0x3e221b95	0.15830834
99	0x3e4c1cfc	0.19932932
100	0x3dd45236	0.10367243
101	0x3e0d169f	0.1377816
102	0xbc9bc6ec	-0.019015752
103	0x3dcfaa6c	0.10139927
104	0x3e3a0cd6	0.18168959
105	0xbdddf5dd	-0.1083791
106	0x3e0016fe	0.12508771
107	0x3c8a3b32	0.01687393
108	0xbcdc64b2	-0.026903484
109	0x3dbd9bb1	0.092582114
110	0xbe073a08	-0.13205731
111	0x3e1da904	0.15396506
112	0x3c8d8f79	0.017280327
113	0xbe0d03e6	-0.13771018
114	0x3d8ac203	0.06775286
115	0x39014a9b	0.00012330191
116	0x3d58256d	0.052770067
117	0x3d7ae185	0.06125023
118	0xbd807cad	-0.0627378
119	0x3c1467ac	0.00905792
120	0xbda9f70e	-0.08299075
121	0x3d9a5377	0.07535451
122	0x3d802e68	0.06258851
123	0x3dc3ef11	0.09567083
124	0x3ce6f48d	0.028192783
125	0xbd376e65	-0.044783015
126	0xbd2514d6	-0.040303074
127	0xbd98e075	-0.07464687
128	0xbda8a6cf	-0.08234941
129	0xbe15ad4b	-0.14616887
130	0x3cd235a5	0.025660345
131	0xbbe647fb	-0.0070276237
132	0xbe515b2d	-0.20444937
133	0xbd619b4c	-0.055079743
134	0xbe0164bf	-0.12636088
135	0xbdabc2e7	-0.08386784
136	0x3dd44220	0.10364175
137	0xbd8d5755	-0.06901423
138	0xbe053a66	-0.13010558
139	0xbdffc621	-0.12488962
140	0x3cce88b8	0.025211677
141	0x3d3e6f46	0.046492837
142	0x3c1ce77b	0.009576674
143	0xbe0417cc	-0.12899703
144	0xbe1cd18a	-0.15314308
145	0x3e060f1a	0.13091698
146	0xbe0239ef	-0.12717412
147	0xbd9f4718	-0.07777232
148	0xbe5114d4	-0.20418102
149	0xbe15f6f7	-0.14644991
150	0xbc21c8ca	-0.009874532
151	0xbe7b6793	-0.24551229
152	0x3d889117	0.06668299
153	0x3caf0fa9	0.021369772
154	0xbc88369e	-0.016627606
155	0xbdf34625	-0.118786134
156	0xbf088576	-0.53328645
157	0xbda76bf0	-0.08174884
158	0xbe973624	-0.29533494
159	0x3d892394	0.06696239
160	0xbe4f2913	-0.20230512
161	0xbd29ea7a	-0.04148338
162	0x3e32ad24	0.1744886
163	0xbdbec834	-0.093155295
164	0xbe5c573f	-0.21517657
165	0xbdebf6b4	-0.11521664
166	0xbe169099	-0.14703597
167	0xbe14358a	-0.14473549
168	0xbe8d0972	-0.2754627
169	0x3da9645b	0.082710944
170	0x3dae0153	0.08496346
171	0xbe4ceff7	-0.20013414
172	0xbdbcfb82	-0.09227659
173	0x3dad466f	0.084607
174	0x3e39111a	0.1807293
175	0x3ea8c22e	0.32960647
176	0x3e361b3c	0.17783827
177	0x3ed31b89	0.41231945
178	0x3da66ee8	0.081266224
179	0x3dd2c476	0.10291378
180	0x3e4f8ffc	0.2026977
181	0xbc8b4a90	-0.017003328
182	0x3ee5dd1d	0.4489526
183	0xbd7b80a1	-0.061401967
184	0x3e043a71	0.12912919
185	0x3e823a12	0.2543493
186	0x3eda0d68	0.42588353
187	0x3f254828	0.64563227
188	0x3ea897f8	0.32928443
189	0x3ce17591	0.02752188
190	0x3e4a13bf	0.19734095
191	0x3db5bc3f	0.08873796
192	0x3d8a78ff	0.067613594
193	0xbcad8317	-0.021180673
194	0xbc883bb1	-0.016630026
195	0xbc9d384e	-0.019191887
196	0x3df21f45	0.118223704
197	0x3da7b808	0.08189398
198	0xbd0ce4cc	-0.034397885
199	0xbe4f5664	-0.20247799
200	0xbe33d685	-0.17562301
201	0xbe009e9f	-0.12560509
202	0xbddfec6d	-0.109337665
203	0xbe966eba	-0.29381353
204	0xbe1e670b	-0.15468995
205	0x3c536a16	0.012903711
206	0xbebb5133	-0.36585388
207	0xbdca9e45	-0.09893469
208	0xbe2b1f12	-0.16711071
209	0x3da6adea	0.0813864
210	0x3d28ea83	0.041239273
211	0xbca41b8c	-0.020032667
212	0x3e18ca4a	0.14920917
213	0xbd577121	-0.052598123
214	0xbdaf839b	-0.085700236
215	0xbca92e06	-0.020651828
216	0xbe08d87e	-0.13363835
217	0xbddc655f	-0.107615225
218	0xbdac6fcc	-0.08419761
219	0x3e4dfa0f	0.20114921
220	0x3ba3240b	0.004978662
221	0xbe0182a5	-0.12647493
222	0xbde8d912	-0.11369528
223	0x3cf8d52f	0.030375091
224	0x3caabed1	0.020842941
225	0x3a9f1ba3	0.0012138974
226	0xbd80b4a4	-0.062844545
227	0xbd2e65f4	-0.0425777
228	0xbe154291	-0.14576174
229	0x3ca08a1d	0.019597108
230	0xbcea4b1a	-0.028600264
231	0xbdf692bf	-0.12039708
232	0xbdf103e9	-0.11768324
233	0xbe404333	-0.18775634
234	0x3c1289e9	0.008944013
235	0x3d1c8657	0.038214054
236	0xbd55451a	-0.052067854
237	0x3cb260bc	0.021774642
238	0xbe5f6642	-0.21816352
239	0xbcc51fc2	-0.024062995
240	0x3e553000	0.20819092
241	0x3db9f1a8	0.090792954
242	0x3d2b6c17	0.04185113
243	0x3dbf0e85	0.09328941
244	0xbbd287c6	-0.006424877
245	0x3e19451f	0.14967774
246	0x3e3ba374	0.18324071
247	0x3da7e583	0.08198073
248	0x3d4f976b	0.050681513
249	0xbc3831d4	-0.011242349
250	0xbdf1efa0	-0.11813283
251	0x3d055989	0.03255609
252	0xbd41b429	-0.047290955
253	0x3dd562df	0.10419249
254	0x3d6b8770	0.05750221
255	0xbd642d48	-0.055707246

conv1.bias f4 [6]
0	0x3d07d324	0.033160344
1	0xbd06e33e	-0.03293156
2	0x3c8cbd9c	0.017180257
3	0xbe74ffe6	-0.23925743
4	0x3bebd85b	0.0071974224
5	0xbd900904	-0.070329696

conv2.weight f4 [16, 6, 5, 5]
0	0x3d0d71ad	0.034532238
1	0xbde90faa	-0.11379941
2	0xbda08ad4	-0.07838979
3	0xbe0096ba	-0.12557498
4	0x3db6225a	0.08893271
5	0x3ddbe8bf	0.10737752
6	0xbe13e82e	-0.14444038
7	0xbe0014a1	-0.1250787
8	0xbe7a4f69	-0.24444355
9	0x3d88536c	0.066565365
10	0x3e655697	0.22396313
11	0xbdffc787	-0.12489229
12	0x3be36e91	0.006940671
13	0xbe2245c1	-0.15846922
14	0x3e7541f2	0.23950937
15	0x3e4fd04b	0.20294301
16	0x3c7ff2f9	0.015621894
17	0x3dfe5b11	0.12419713
18	0x3deb7022	0.11495997
19	0x3e0fe7af	0.14053224
20	0x3d2c8e04	0.042127624
21	0x3e3da653	0.18520479
22	0x3e8786ca	0.26470023
23	0x3e7a5049	0.24444689
24	0x3d99389e	0.07481502
25	0xbe4f985f	-0.20272969
26	0xbe0e269e	-0.13881919
27	0xbe442915	-0.19156297
28	0xbe885943	-0.266306
29	0xbef09a30	-0.46992636
30	0xbe94a810	-0.29034472
31	0x3e0489ae	0.12943146
32	0x3e50b389	0.20380987
33	0xbd3ec0af	-0.046570476
34	0xbe23e380	-0.16004753
35	0xbd38416e	-0.044984274
36	0xbc60a7af	-0.013711854
37	0x3e172111	0.14758708
38	0xbe1ecf9f	-0.15508889
39	0xbe1d7fd4	-0.15380794
40	0x3e2f80ac	0.17138928
41	0xbd3ce4be	-0.046116583
42	0xbebdd668	-0.3707764
43	0xbebce800	-0.36895752
44	0xbd4aaba9	-0.049480114
45	0x3eb4da5b	0.35322842
46	0x3ddb3628	0.10703689
47	0x3ca3b17a	0.019982088
48	0xbd3b54e7	-0.045735266
49	0x3e21035b	0.15723936
50	0x3aa93963	0.0012910779
51	0x3ddb0e9c	0.10696146
52	0x3cf855f1	0.030314418
53	0xbc24cd19	-0.010058665
54	0x3d8fd5cf	0.07023203
55	0xbd189c8b	-0.037258666
56	0x3c74863b	0.014924581
57	0xbda5f722	-0.081037775
58	0x3d0a8bfc	0.033824906
59	0xbcb31648	-0.02186121
60	0xbe14bf63	-0.14526133
61	0xbd847d57	-0.06469219
62	0x3ec9e9a3	0.39436063
63	0x3e993c55	0.29928842
64	0xbd5733ae	-0.05253952
65	0xbe392d79	-0.18083753
66	0xbe855110	-0.26038408
67	0x3e910047	0.28320524
68	0x3e631df3	0.22179393
69	0xbe7d0ad7	-0.24711166
70	0x3e5050f7	0.20343386
71	0xbe549461	-0.20759727
72	0xbe9fee14	-0.31236327
73	0xbe8b3bbf	-0.2719402
74	0xbe037027	-0.12835751
75	0x3e5630c2	0.20917037
76	0x3cb8fb82	0.022580866
77	0x3d4d8ba3	0.050181996
78	0x3db6815b	0.08911391
79	0x3d280c0c	0.041027114
80	0xbe165f90	-0.14684892
81	0xbcfca4fe	-0.030840393
82	0x3ddf0df8	0.10891336
83	0x3dd39192	0.103305
84	0xbd0944b3	-0.033512782
85	0xbc5659a7	-0.013082898
86	0xbe21c47f	-0.15797614
87	0x3e3419d6	0.1758798
88	0x3da6f008	0.08151251
89	0xbd85d934	-0.06535569
90	0x3de83c61	0.11339641
91	0x3cf78571	0.030214997
92	0x3cb4baa5	0.022061655
93	0x3d97e93f	0.07417535
94	0xbdde74eb	-0.10862144
95	0x3ce27d23	0.02764756
96	0xbdebeb14	-0.11519447
97	0x3ad43125	0.0016188963
98	0x3b5c2729	0.0033592677
99	0xbe1939ed	-0.14963503
100	0xbd15fa60	-0.03661573
101	0xbd152d7b	-0.036420327
102	0xbd8672a4	-0.06564835
103	0xbe84e6b7	-0.2595727
104	0x3d7b3fef	0.06134027
105	0x3e5da96b	0.21646659
106	0xbd20cf8e	-0.03926044
107	0x3cbe8037	0.023254497
108	0x3d5ff9c6	0.054681562
109	0x3e042c07	0.1290742
110	0x3d86f7bb	0.065902196
111	0x3d61612e	0.05502432
112	0x3d5bcac1	0.053660158
113	0x3e529d6d	0.20567866
114	0x3dd22166	0.102602765
115	0x3db5f142	0.08883907
116	0x3d97dc57	0.07415073
117	0xbe47bdc1	-0.19505979
118	0xbd9fea8e	-0.0780841
119	0xbcda8c98	-0.026678368
120	0xbe702156	-0.23450217
121	0xbe9de51f	-0.30838868
122	0xbe808388	-0.2510035
123	0xbe999729	-0.2999814
124	0xbeb14928	-0.34626126
125	0x3edc4d24	0.43027604
126	0x3e88c337	0.26711437
127	0x3dd0be71	0.10192574
128	0x3f0d7b6b	0.55266446
129	0x3daed8fc	0.0853748
130	0xbea905ed	-0.33012334
131	0x3e809654	0.2511469
132	0xbc38d829	-0.011282005
133	0x3d9f24de	0.07770704
134	0xbeebe05a	-0.46069604
135	0xbf0c5f66	-0.54833066
136	0x3f305638	0.6888156
137	0x3f0d151a	0.55110323
138	0xbe0dfed4	-0.1386674
139	0xbf1d18e4	-0.61366105
140	0xbe98411d	-0.29737177
141	0x3cc876c2	0.02447069
142	0x3d97842a	0.07398255
143	0xbed7e7cf	-0.42169043
144	0xbf609680	-0.87729645
145	0x3dded9c0	0.10881376
146	0xbee1792e	-0.44037765
147	0xbf27477b	-0.65343446
148	0xbe4856ea	-0.19564405
149	0xbe8cd342	-0.27504927
150	0xbe561fd2	-0.20910576
151	0xbd02e8a5	-0.03196015
152	0xbaa92e13	-0.0012907408
153	0xbe1bcde1	-0.15215255
154	0xbeb79640	-0.3585682
155	0xbd5595fb	-0.052144986
156	0x3e4b2a06	0.1984025
157	0x3d3f2b4a	0.046672143
158	0x3d9e0375	0.07715503
159	0xbe3c19bc	-0.18369192
160	0x3ced1d90	0.02894476
161	0x3def89fd	0.11696241
162	0x3db76d71	0.08956421
163	0x3d278408	0.0408974
164	0xbdcc24cb	-0.09967955
165	0xbbcb211c	-0.0061990153
166	0xbe01ee92	-0.12688664
167	0xbdad944d	-0.08475552
168	0xbdcc2d1c	-0.099695414
169	0xbdae66d7	-0.08515709
170	0x3c9c4387	0.019075168
171	0xbdf016e1	-0.11723114
172	0xbdb47399	-0.08811111
173	0xbdb4de84	-0.08831504
174	0xbe2d28f8	-0.1691016
175	0xbe0308f6	-0.12796387
176	0xbd364f89	-0.044509444
177	0xbdb307e8	-0.08741742
178	0xbdc74689	-0.097302504
179	0x3d6bd91b	0.057580095
180	0xbe07b33a	-0.13251963
181	0xbd5aa367	-0.05337849
182	0xbdc69e3a	-0.09698148
183	0xbe7acbf2	-0.24491861
184	0x3d6ed91a	0.058312513
185	0xbdddaeb2	-0.10824336
186	0x3e036e98	0.12835157
187	0xbe7870e8	-0.2426182
188	0xbe3d4981	-0.18485071
189	0x3d15eb72	0.03660149
190	0x3e0159bb	0.12631886
191	0x3e4eb591	0.2018645
192	0xbdef08f0	-0.116716266
193	0xbdba345e	-0.090920195
194	0x3e35fba4	0.17771775
195	0x3ed81288	0.42201638
196	0x3ef5e66f	0.4802737
197	0x3e06a3d2	0.1314843
198	0x3e45dfb5	0.19323619
199	0x3eb79da2	0.35862452
200	0xbf3f450c	-0.7471473
201	0xbea12a2e	-0.31477493
202	0xbd85a8e1	-0.06526352
203	0xbef93f9e	-0.4868135
204	0xbf16ebd1	-0.5895358
205	0xbe3721d6	-0.17884001
206	0x3df985b7	0.12183707
207	0x3f0930c4	0.53590035
208	0x3d7dc9c9	0.061960015
209	0xbecbd979	-0.39814356
210	0xbdaef43d	-0.085426785
211	0x3e494323	0.19654517
212	0x3f05b349	0.5222669
213	0x3e79a0b8	0.24377716
214	0xbe96a2b5	-0.2942101
215	0x3dad7aa6	0.08470659
216	0xbcb27347	-0.021783484
217	0x3e4be9b6	0.19913372
218	0x3e8372a3	0.25673398
219	0xbdbdd480	-0.09269047
220	0x3e432b99	0.190596
221	0xbe23d0e3	-0.15997653
222	0x3b889c43	0.0041690185
223	0x3d4d4664	0.050115958
224	0x3de43e3c	0.11144683
225	0xbd9fa00d	-0.07794199
226	0x3e0734b8	0.13203704
227	0xbde67ed6	-0.11254661
228	0xbe0aec7c	-0.13566774
229	0xbdb0db86	-0.08635621
230	0xbcdffbab	-0.027341684
231	0x3e039f7c	0.12853807
232	0xbe1ee06b	-0.15515296
233	0xbd9c7dc7	-0.076411776
234	0x3e395d5d	0.18102022
235	0xbd9ced88	-0.07662493
236	0x3e466205	0.19373329
237	0xbe3e08b1	-0.18558003
238	0xbe183699	-0.14864577
239	0x3e21cd70	0.15801024
240	0xbd3986e2	-0.04529465
241	0x3e4c0e33	0.19927292
242	0xbe24cbed	-0.16093417
243	0xbe327185	-0.17426117
244	0x3cc29782	0.023753885
245	0xbdea76b8	-0.11448425
246	0x3cfa86ab	0.030581793
247	0xbde867c0	-0.11347914
248	0xbe866f20	-0.26256657
249	0xbe7c484a	-0.24636951
250	0x3de4dd11	0.111749776
251	0x3d2d8666	0.0423645
252	0x3caaf162	0.020867053
253	0x3d9a8401	0.07544709
254	0x3d28dc7a	0.041225888
255	0x3d24a178	0.04019305

conv2.bias f4 [16]
0	0x3e15dbba	0.146346
1	0x3e3da797	0.18520962
2	0xbe0585aa	-0.1303927
3	0xbde4ad92	-0.111659184
4	0x3dfdf85a	0.12400885
5	0x3eb144bb	0.3462275
6	0x3e6f9088	0.23394978
7	0xbdd753ae	-0.105140075
8	0xbea853d4	-0.32876456
9	0x3ea71ab4	0.3263756
10	0x3e7a5f86	0.24450502
11	0x3f3098e3	0.68983287
12	0x3e717b0d	0.23582096
13	0x3e0f78f4	0.14010984
14	0xbd9bbe9a	-0.07604714
15	0x3ddb357d	0.107035615

fc1.weight f4 [256, 400]
0	0xbce28093	-0.0276492
1	0x3c0f0bcd	0.008730841
2	0xbcae1370	-0.021249503
3	0x3d32a017	0.043609705
4	0x3d090d0a	0.0334597
5	0xbd0dd94b	-0.034631055
6	0x3af3e633	0.0018608033
7	0xbc3ae6fa	-0.011407608
8	0x3cc271f3	0.023735976
9	0xbcdc7df3	-0.026915526
10	0x3c6f298d	0.014597309
11	0xbc5a586d	-0.013326746
12	0x3c5740d3	0.013138014
13	0x3a6006cd	0.0008545935
14	0x3cbe9363	0.023263639
15	0xbc8d37e7	-0.01723857
16	0x3c0805ba	0.008302147
17	0x3ce10a67	0.02747078
18	0x3cd2579a	0.025676537
19	0x3d10eaba	0.035380103
20	0xbd1d5663	-0.038412463
21	0x3c8e5360	0.01737374
22	0x3d08cfe0	0.03340137
23	0xbcecd67a	-0.028910864
24	0x3d2914c8	0.041279584
25	0x3d4af7ea	0.049552836
26	0x3ce23c30	0.02761659
27	0x3d09857b	0.033574563
28	0xbc818273	-0.015809273
29	0xbd3a036f	-0.04541343
30	0x3bca8d0d	0.0061813653
31	0xbb5bca00	-0.003353715
32	0x3c394c3a	0.011309678
33	0xbd170e10	-0.036878645
34	0x3c401eda	0.011726106
35	0xbd150c33	-0.036388587
36	0x3d3ce770	0.046119153
37	0xbd3c27dd	-0.045936454
38	0xbcb66623	-0.0222655
39	0xbd396490	-0.04526192
40	0xbbfa46e7	-0.0076378467
41	0xbc2c4367	-0.010514117
42	0xbbcc37b3	-0.006232226
43	0x3d49e9ba	0.049295165
44	0xbcd9786a	-0.026546676
45	0x3d09dd6a	0.033658423
46	0xbd4af380	-0.049548626
47	0xbc702c2d	-0.01465897
48	0x3bbcc127	0.0057603302
49	0x3d1901d5	0.037355263
50	0xbd27569f	-0.040854093
51	0xbcc05fc3	-0.023483163
52	0xbd4a1d90	-0.0493446
53	0x3aad3acd	0.0013216377
54	0x3c8321b0	0.016007274
55	0x3b8ce373	0.004299575
56	0xbccd37ba	-0.025050987
57	0x3d2b5158	0.041825622
58	0x3c7560ed	0.014976722
59	0x3d457fc0	0.048217535
60	0x3ce6fa23	0.028195446
61	0x3bd5dab3	0.006526315
62	0x3d239bfd	0.039943684
63	0x3c6dff27	0.014526165
64	0xbc07b367	-0.008282519
65	0xbd058c4d	-0.032604504
66	0x3d2bfaab	0.041987102
67	0x3aced1cd	0.0015779078
68	0x3cb4e3b0	0.022081226
69	0x3c3b9c73	0.011450875
70	0x3d4a195f	0.049340602
71	0x3cbabc00	0.022794724
72	0xbce0b190	-0.027428418
73	0x3d302590	0.043004572
74	0xbb033500	-0.0020020604
75	0x3d043952	0.032281227
76	0x3d1e0e15	0.03858765
77	0xbca29853	-0.019848024
78	0x3d2b238b	0.041781943
79	0x3c910fa7	0.017707659
80	0xbbcf48cd	-0.006325817
81	0x3d3af84a	0.045646943
82	0xbc6244c7	-0.013810343
83	0xbd05734d	-0.032580663
84	0xbc7afc67	-0.0153189665
85	0x3c9d4ab7	0.019200666
86	0xbcbed48a	-0.023294706
87	0x3ce1d690	0.027568132
88	0xbcc9bd70	-0.024626464
89	0x3b8cc64d	0.0042961
90	0x3bdc4a67	0.0067227366
91	0xbd3e3d7d	-0.04644536
92	0xbd0f62ed	-0.035006452
93	0xbcfbd8d0	-0.030743033
94	0x3c28dd9a	0.01030674
95	0xbaabb39a	-0.001309979
96	0xbcf66dfd	-0.030081743
97	0x3bc2e51a	0.005947721
98	0xbba8c4a7	-0.005150396
99	0x3c0c7aa7	0.0085741645
100	0x3b95ef8d	0.004575676
101	0x3be30ea7	0.006929237
102	0x3c99375a	0.018703151
103	0x3ced11b0	0.028939098
104	0xbd1f2aa2	-0.038859017
105	0xbb8e4d8d	-0.004342741
106	0xbbdbb7a7	-0.0067052427
107	0xbd13446b	-0.03595392
108	0xbb495067	-0.003071809
109	0xbd4aa557	-0.049474087
110	0xbc4e3e93	-0.012588161
111	0xbd1d1a25	-0.03835501
112	0xbc24688d	-0.0100346925
113	0xbc943be3	-0.018094962
114	0xbcdd78a7	-0.02703507
115	0x3bb6d027	0.005579013
116	0xbd07bdbf	-0.03313994
117	0xbd4818bd	-0.048851717
118	0xbbed36cd	-0.007239199
119	0x3d12ed53	0.03587086
120	0x3d458752	0.048224755
121	0xbcb0cbca	-0.02158155
122	0xbcfd9f33	-0.030959701
123	0x3abfc6cd	0.0014631391
124	0x3d45dba8	0.048305184
125	0xbd016765	-0.031592745
126	0xbd1ea66b	-0.038732927
127	0x3cfe3550	0.03103128
128	0xbcd76d1d	-0.026297146
129	0x3c913d03	0.017729288
130	0xba838c00	-0.001003623
131	0xbc611fe7	-0.013740516
132	0x3ccd1e50	0.025038868
133	0xbc9c427d	-0.019074673
134	0xbd2c632f	-0.042086776
135	0x3cd7b30d	0.026330495
136	0x3ce5b49a	0.02804022
137	0x3c02333a	0.007946784
138	0xbc3a68e0	-0.011377543
139	0xbd0f8ef7	-0.03504845
140	0x3cb134ea	0.021631677
141	0x3cf72ea0	0.0301736
142	0xbc23111a	-0.009952808
143	0x3c29f37a	0.010372991
144	0xbd071193	-0.032975744
145	0xbd027915	-0.031853754
146	0x3b23e24d	0.0025006712
147	0x3d1b1608	0.037862808
148	0xbce0713d	-0.027397746
149	0xbbb2a2cd	-0.0054515363
150	0xbca21a60	-0.019787967
151	0x3d168b73	0.036754083
152	0x3b3db21a	0.0028945268
153	0xbb1b069a	-0.0023655058
154	0x3c93d02a	0.018043596
155	0xbcca3bc0	-0.024686694
156	0x3d2d89db	0.042367797
157	0x3b038980	0.002007097
158	0xbc2547c7	-0.010087914
159	0xbc0a3bda	-0.008437121
160	0x3d277683	0.040884506
161	0x3cf80f9d	0.030280882
162	0xbc35a77a	-0.011087293
163	0xbc6208f3	-0.013796079
164	0x3a9d1b67	0.0011986316
165	0xbd45ce97	-0.048292723
166	0x3c7c54ba	0.01540106
167	0xbb3b949a	-0.002862251
168	0xbca7fce3	-0.020506328
169	0xbcf3f5a7	-0.029780222
170	0xbd429503	-0.04750539
171	0xbd259855	-0.04042848
172	0xbca22130	-0.019791216
173	0xbc8417ba	-0.016124595
174	0xbc5fb9e0	-0.013655156
175	0xbd4b62f7	-0.049654927
176	0xbd02ee43	-0.031965505
177	0xbc62446d	-0.013810259
178	0xbd2c6188	-0.0420852
179	0x3d0147ed	0.031562734
180	0x3ca1abe0	0.019735277
181	0x3cb482f3	0.022035098
182	0x3d162e97	0.036665525
183	0x3c92e6d0	0.017932326
184	0x3d3ee952	0.04660923
185	0xbd04cc3b	-0.03242133
186	0xbd126c9b	-0.035748105
187	0xbc9f07da	-0.019412924
188	0x3ccbe81a	0.024890948
189	0x38cd8ccd	9.801388e-05
190	0x3c18294d	0.009287191
191	0x3ce983b7	0.02850519
192	0x3cbabbb7	0.022794588
193	0x3cfc114a	0.030769963
194	0x3cad5603	0.021159178
195	0xbd122145	-0.03567626
196	0xbc2db26d	-0.010601622
197	0xbcc0aa07	-0.023518575
198	0xbd46cc6f	-0.048534807
199	0xbc932d00	-0.017965794
200	0xbb61b567	-0.00344404
201	0xbc975590	-0.018473417
202	0x3c5cdbb3	0.013480115
203	0xbc5db273	-0.013531315
204	0xbd0a8b53	-0.033824276
205	0x3d3e3578	0.04643771
206	0xbd1da078	-0.038483113
207	0x3d1b6b95	0.037944395
208	0xbcae15ad	-0.02125057
209	0x3c0ac93a	0.008470828
210	0xbbec5040	-0.007211715
211	0xbd016e23	-0.031599175
212	0xbc98d803	-0.01865769
213	0x3c07f8c7	0.008299059
214	0x3d3970ed	0.04527371
215	0xbc856b20	-0.016286433
216	0xbb5dd033	-0.003384602
217	0xbd0f606a	-0.035004057
218	0xbc6be313	-0.0143974
219	0xbccec5fd	-0.025240893
220	0xbbf87973	-0.0075828373
221	0x3aaba600	0.0013095737
222	0x3d4244c0	0.047428846
223	0x3c259320	0.010105878
224	0xbcb2e5e3	-0.021838134
225	0xbd26c932	-0.04071922
226	0xbcd612c0	-0.026131988
227	0x3d1335b0	0.035939872
228	0xbcdab013	-0.026695287
229	0x3d43b23b	0.047777396
230	0xbc89ef80	-0.016837835
231	0x3ce2b5aa	0.027674515
232	0xbc4e02c7	-0.012573904
233	0xbc8fc1e0	-0.017548501
234	0xbc9b07d7	-0.018924637
235	0xbc852153	-0.016251242
236	0xbd148020	-0.036255002
237	0xbd4bb6d0	-0.04973489
238	0x3b6565e7	0.0035003365
239	0xbb04f61a	-0.002028829
240	0x3d3fca33	0.04682369
241	0x3d17178d	0.036887694
242	0xbc56ee1a	-0.013118291
243	0xbd235407	-0.039875057
244	0x3cd2cb2d	0.025731647
245	0x3d2881ad	0.041139293
246	0x3b64b9b3	0.0034900724
247	0xbd1245e2	-0.035711177
248	0xbbd59f0d	-0.0065192045
249	0x3d282a63	0.041056048
250	0xbbc9a08d	-0.0061531723
251	0x3c2288a0	0.009920269
252	0x3c68e14d	0.014213872
253	0x3d3134f5	0.043263394
254	0xbc9a302a	-0.018821795
255	0x3d3a3dd7	0.04546913

fc1.bias f4 [256]
0	0x3bfd3180	0.007726848
1	0x3d2b2f7d	0.041793335
2	0x3cb0db6d	0.021589005
3	0xbb962b33	-0.0045827865
4	0x3ce4f857	0.027950449
5	0xbd1aae1b	-0.037763696
6	0x3cae89e7	0.021305991
7	0xbcd9bb53	-0.026578581
8	0xbc2c38c0	-0.010511577
9	0x3d283d65	0.041074175
10	0xbd1d0da8	-0.0383431
11	0xbc112a53	-0.008860189
12	0xbd2e556b	-0.04256193
13	0x3cf524e7	0.029924823
14	0xbc8a51a0	-0.016884625
15	0xbc83af2d	-0.016074741
16	0xbd1c492a	-0.038155712
17	0x3c76e187	0.015068418
18	0xbd02e118	-0.031952947
19	0xbc9d4e4a	-0.01920237
20	0xbccb6cad	-0.024832094
21	0x3d1453f3	0.036212873
22	0x3c975c20	0.018476546
23	0x3cc5aaea	0.02412935
24	0xbbce2433	-0.0062909364
25	0xbce8709d	-0.02837401
26	0xbc6ac5fa	-0.014329428
27	0x3b0bcdb3	0.0021332323
28	0xbd37b053	-0.04484589
29	0x3d040897	0.032234754
30	0x3d2d7e58	0.04235682
31	0x3d35988b	0.04433493
32	0x3cafc210	0.02145484
33	0x3cdc05f7	0.026858313
34	0xbc5833b3	-0.01319592
35	0xbbf0d5cd	-0.007349706
36	0x3ba25f1a	0.0049551846
37	0xbd057718	-0.03258428
38	0x3d11d8b8	0.03560707
39	0xbc02f327	-0.007992542
40	0x3d4bff67	0.049804118
41	0xbcffef3d	-0.031242007
42	0xbd05cb58	-0.032664627
43	0x3bc51627	0.0060146037
44	0xbb448cb3	-0.002999109
45	0xbd19c0ff	-0.03753757
46	0x3d0cc4c5	0.03436734
47	0x3d05ea98	0.03269443
48	0x3c60eb5a	0.013727987
49	0xbcb7e54d	-0.022448206
50	0xbc9fc270	-0.019501895
51	0xbd421bb3	-0.047389697
52	0x3d43ba83	0.047785293
53	0xbabd1b00	-0.0014427602
54	0x3d29057f	0.041265007
55	0xbd243ef3	-0.040099096
56	0x3d262722	0.040564664
57	0x3c8e2d83	0.017355686
58	0xbd422c6f	-0.047405656
59	0xbd113b1a	-0.035456754
60	0xbd228fbd	-0.03968786
61	0x3d400c02	0.04688645
62	0xbd478f5b	-0.0487207
63	0xbcb52667	-0.022113038
64	0x3d42eb4d	0.04758768
65	0xbb89d2cd	-0.0042060376
66	0x3d2a4667	0.041571047
67	0x3ce046f0	0.027377576
68	0xbd06d2f8	-0.03291604
69	0x3d0d4a7d	0.034494866
70	0x3c46c600	0.012132168
71	0x3cc115ad	0.023569906
72	0x3d04014b	0.032227796
73	0xbd42667f	-0.04746103
74	0xbd17c66b	-0.03705446
75	0x3cef5527	0.029215408
76	0x3d2840e3	0.041077506
77	0xbcbbdfa3	-0.022933787
78	0x3d379b9b	0.04482613
79	0x3ccbc8e3	0.024876064
80	0xbc9b238d	-0.01893785
81	0x3cdd3fe0	0.027007997
82	0x3b3b9be7	0.002862686
83	0xbd3f6b2f	-0.046733078
84	0x3aec5f33	0.0018033743
85	0xbc84ad53	-0.016195929
86	0x3c2875f3	0.010282028
87	0xbbabf380	-0.0052475333
88	0x3ac43f67	0.0014972509
89	0xbbbf7ff3	-0.00584411
90	0x3c60bd93	0.013717073
91	0x3ce53ab7	0.027982099
92	0x3bc1b600	0.0059115887
93	0xbc910b2a	-0.017705519
94	0x3d29990b	0.04140572
95	0x3be8b280	0.007101357
96	0xbcbfb06d	-0.023399556
97	0xbca968c3	-0.020679837
98	0xbc8780d7	-0.016540928
99	0x3d29d015	0.041458208
100	0xbd2b99cb	-0.041894715
101	0xbcee175a	-0.02906387
102	0xbcf5727a	-0.029961813
103	0xbd4bb3f7	-0.049732175
104	0xbcb57ed7	-0.022155209
105	0xbbfc64f3	-0.007702464
106	0x3d278375	0.04089685
107	0x3b5e9a4d	0.0033966482
108	0x3bd4005a	0.0064697685
109	0x3ce235b0	0.02761349
110	0x3ba8d7b3	0.0051526665
111	0x3ccf2207	0.02528478
112	0x3cad99dd	0.021191532
113	0xbc92121d	-0.017830903
114	0xbcf65443	-0.030069476
115	0xbcf50d77	-0.029913647
116	0x3c128e2d	0.00894503
117	0xbc3d170d	-0.01154114
118	0xbd4ac908	-0.049508125
119	0x3c83197a	0.01600336
120	0x3cbc0090	0.022949487
121	0x3b8b4367	0.0042499783
122	0xbcb9e07a	-0.022690047
123	0x3d2233f5	0.03960033
124	0xbd4ae2ad	-0.04953258
125	0xbcb5588d	-0.02213695
126	0x3d3c8713	0.046027254
127	0x3c01bf7a	0.007919187
128	0xbc5b32ba	-0.013378793
129	0xbc83e7ea	-0.016101796
130	0xbc7c65c7	-0.015405125
131	0x3cd2bd43	0.025725013
132	0x3cb26be3	0.02177996
133	0x3d33a285	0.043856163
134	0x3ca08770	0.019595832
135	0x3c75fe47	0.015014238
136	0x3c89cb00	0.01682043
137	0xbd1efb8f	-0.038814124
138	0x3c64f873	0.013975251
139	0x3b61861a	0.0034412206
140	0xbc321ee0	-0.010871619
141	0xbd1cc5e0	-0.038274646
142	0x3ce5bb2a	0.028043348
143	0xbd2998cb	-0.04140548
144	0x3ca2b53d	0.019861812
145	0x3c537287	0.012905723
146	0x3ce63c5d	0.028104955
147	0xbc83f0c3	-0.016106015
148	0xbc9cc810	-0.019138366
149	0x3bf30e27	0.0074174586
150	0x3ca3691a	0.019947577
151	0x3d280283	0.04101802
152	0x3d002f5b	0.03129516
153	0x3d2cbbcd	0.04217129
154	0x3c4e2c13	0.01258375
155	0xbd01eabd	-0.031718004
156	0xbd441727	-0.047873642
157	0xbd4b4507	-0.049626376
158	0x3c9a87ed	0.018863643
159	0xbd3ede52	-0.04659874
160	0xbae0029a	-0.0017090619
161	0xbc792533	-0.015206623
162	0x3a88409a	0.0010395229
163	0xbcd1f8d0	-0.025631338
164	0x3c9d7de3	0.019225067
165	0x3b65a74d	0.0035042346
166	0xbd24a628	-0.04019752
167	0x3cd6ff27	0.026244713
168	0xbbdaf98d	-0.006682581
169	0xbc2cc073	-0.01054393
170	0x3bc578f3	0.006026381
171	0xbb3adccd	-0.0028512955
172	0xbd104352	-0.03522045
173	0x3c96cbd7	0.018407745
174	0x3c361c07	0.011115081
175	0xbd466a02	-0.04844094
176	0xbd3f16d5	-0.046652634
177	0xbae55d33	-0.0017499089
178	0xbd49b0d2	-0.049240895
179	0xbce179e7	-0.027523948
180	0xbbc07eda	-0.005874497
181	0xbb8e389a	-0.0043402435
182	0x3ab43f9a	0.0013751865
183	0xbb773833	-0.0037722706
184	0xbd312ea3	-0.043257367
185	0x3ce2ecd3	0.027700817
186	0x3d28c31f	0.041201707
187	0xbd34a1b2	-0.044099517
188	0x3cce9e83	0.025222069
189	0xbcf4c650	-0.029879719
190	0xbcad8fcd	-0.021186734
191	0x3b147767	0.0022654177
192	0x3c2f46ba	0.010698015
193	0xbb9637cd	-0.0045842887
194	0xbc5de687	-0.0135437315
195	0xbcd906e3	-0.026492542
196	0xbce037a7	-0.027370287
197	0xbc05c300	-0.008164167
198	0xbb8f9dc0	-0.004382819
199	0xbd187a4b	-0.037226003
200	0xbbfdcb00	-0.0077451468
201	0x3d1dd23b	0.03853057
202	0xbce8e883	-0.028431183
203	0x3a662f33	0.0008780837
204	0x3d4426bd	0.047888506
205	0x3d08462a	0.03327004
206	0xbc1031ad	-0.008800906
207	0x3d45fd9b	0.04833756
208	0x3cda3a9d	0.026639277
209	0x3b898e27	0.004197854
210	0xbd4136da	-0.04717145
211	0xbd3450a8	-0.044022232
212	0xbcf16330	-0.029466242
213	0xbd0f0a6a	-0.03492204
214	0xbd257b70	-0.040400922
215	0x3c94b4d3	0.01815263
216	0x3cac4480	0.021028757
217	0x3c507d1a	0.012725139
218	0x3d35e53b	0.044408064
219	0xbd4bb84b	-0.049736302
220	0xbce4863d	-0.027896041
221	0xbcaaea40	-0.020863652
222	0xbbadaf5a	-0.0053004446
223	0x3cf4e653	0.029894983
224	0x3b1821cd	0.0023213506
225	0xbcfedefd	-0.031112188
226	0xbd46557b	-0.048421364
227	0xbc9e0b9a	-0.019292641
228	0x3d284c62	0.04108847
229	0x3c95b62a	0.01827534
230	0xbb49f1cd	-0.003081429
231	0xbccf1d4a	-0.02528252
232	0x3d26557f	0.04060888
233	0xbc5f5f4d	-0.013633561
234	0x3bf27f67	0.0074004414
235	0xbd15a157	-0.03653082
236	0x3bf56f1a	0.007490051
237	0xbc0e7800	-0.008695602
238	0xbc76ede7	-0.015071369
239	0x3d40ffa3	0.047118794
240	0xbd0eb048	-0.034836084
241	0xbc05e25a	-0.008171642
242	0x3c61f9ed	0.013792497
243	0xbc46e480	-0.01213944
244	0xbd04085b	-0.03223453
245	0x3d17428d	0.036928702
246	0x3d19432d	0.03741758
247	0x3d2113fd	0.039325703
248	0xbd079fd2	-0.0331114
249	0x3d0d8a13	0.034555506
250	0x3b25f233	0.0025321364
251	0x3cbb3b0d	0.022855306
252	0x3cab6ec3	0.020926839
253	0x3ccaf0c3	0.024773007
254	0xbd035068	-0.032059103
255	0x3d3f98e8	0.046776682

fc2.weight f4 [10, 400]
0	0x3de2a896	0.110673115
1	0x3e2dea69	0.16983952
2	0x3dda073e	0.106459126
3	0x3e14f64c	0.1454708
4	0x3e0e2de0	0.13884687
5	0x3e3fd948	0.1873523
6	0x3df6255d	0.12018845
7	0x3dd8babb	0.10582491
8	0x3d9e23ea	0.07721694
9	0x3e26e631	0.16298749
10	0x3dffbdf2	0.12487401
11	0x3e21ed18	0.158131
12	0x3db62c31	0.088951476
13	0x3dc0f697	0.09422033
14	0x3e1aa247	0.15100966
15	0x3d0faeb0	0.035078704
16	0x3d5d83d1	0.054080788
17	0x3d34f7bd	0.044181574
18	0x3d75e9cb	0.060037415
19	0x3d12af5b	0.035811763
20	0x3ba422de	0.0050090393
21	0x3cc71755	0.024303118
22	0x3cd20aaa	0.02563985
23	0x3d0354fd	0.032063473
24	0xbcad9468	-0.02118893
25	0x3c737d73	0.014861452
26	0xbd57e2e2	-0.052706607
27	0xbe0db270	-0.138376
28	0xbe024a6d	-0.12723704
29	0xbdb0d1a9	-0.086337395
30	0xbe04eeec	-0.12981766
31	0xbd87cd35	-0.06630937
32	0xbde69e4d	-0.11260662
33	0xbd972bc6	-0.07381396
34	0xbe18ffbe	-0.14941308
35	0xbdfe15ed	-0.12406526
36	0xbccd320e	-0.025048282
37	0xbdab5e4c	-0.08367595
38	0xbe03e6b1	-0.1288097
39	0xbe12ecfa	-0.14348212
40	0xbe096d65	-0.13420637
41	0x3c258f8f	0.010105028
42	0x3c6dd93b	0.014517124
43	0x3cffdc26	0.031232905
44	0xbd2f41a8	-0.042787224
45	0xbd942308	-0.07233244
46	0xbd6cafd0	-0.057784855
47	0x3da0ec6a	0.078575924
48	0xbc9beb67	-0.019033147
49	0xbe04cf8b	-0.12969796
50	0xbcfbc4d3	-0.030733502
51	0x3d4859a2	0.048913606
52	0x3be0bc6a	0.006858398
53	0xbd2ed8a0	-0.04268706
54	0x3d0a3074	0.033737615
55	0xbd167048	-0.036728173
56	0x3aa3fb58	0.0012510819
57	0x3cdb9087	0.026802314
58	0x3b8abf9d	0.004234268
59	0xbcd833ee	-0.02639195
60	0xbd1e3b9d	-0.03863107
61	0xbcca2237	-0.024674518
62	0x3d210aa3	0.039316785
63	0xbc9d8e53	-0.019232905
64	0xbd428a8f	-0.04749542
65	0x3b9f8dad	0.004869184
66	0xbc97893d	-0.018498057
67	0xbd3b4995	-0.04572447
68	0x3d61ce34	0.05512829
69	0xbc4921a0	-0.012276083
70	0x3b8ce09a	0.0042992355
71	0x3d30130d	0.04298692
72	0xbd291bb7	-0.041286197
73	0x3d1eadf3	0.03874011
74	0xbd2d0835	-0.042244155
75	0x3d2446d1	0.0401066
76	0x3d88737e	0.066626534
77	0x3d816955	0.063189186
78	0x3d0109c4	0.031503454
79	0x3d06de72	0.032926984
80	0x3d755315	0.059893686
81	0x3db00161	0.08594013
82	0x3d83ac1a	0.0642931
83	0x3d5ef386	0.05443146
84	0x3d92b6da	0.071637824
85	0x3d3a9a29	0.045557175
86	0x3e23f762	0.16012338
87	0x3dbc92bb	0.09207674
88	0x3dd19105	0.102327384
89	0x3dcd8b9d	0.10036395
90	0x3b59376d	0.0033144609
91	0x3d502700	0.050818443
92	0x3d95d1dc	0.07315418
93	0x3db727b9	0.08943123
94	0x3d30aadb	0.04313169
95	0xbdc4e366	-0.09613685
96	0xbd309da6	-0.043119095
97	0xbb1eeb34	-0.0024249079
98	0xbd0a25f2	-0.033727594
99	0x3cad3954	0.0211455
100	0x3d1f92e2	0.038958438
101	0xbdc981fd	-0.098392464
102	0xbe2720de	-0.16321132
103	0xbe0a40e3	-0.13501315
104	0xbd4bc48d	-0.049747992
105	0xbb62c7c2	-0.0034603928
106	0xbda35537	-0.07975238
107	0xbe0984aa	-0.13429514
108	0xbd1e303b	-0.038620215
109	0xbc2d958d	-0.010594738
110	0x3d1d99eb	0.038476866
111	0xbc4970e3	-0.012294981
112	0xbd2e97b6	-0.04262515
113	0x3c9e5cfc	0.019331448
114	0x3d8e9075	0.06961147
115	0x3d309fb3	0.04312105
116	0x3d19d0f8	0.037552804
117	0x3d8c98b4	0.06865063
118	0xb9ae5373	-0.0003325004
119	0x3d2ec79f	0.042670842
120	0x3ca2e885	0.019886265
121	0x3d0c3c78	0.034237355
122	0x3ca965a9	0.020678358
123	0xba8c0b0c	-0.0010684445
124	0x3d27f51d	0.041005243
125	0x3d840d7b	0.06447884
126	0x3dad4277	0.08459943
127	0x3d74b1f2	0.059740014
128	0xb934685a	-0.00017205012
129	0x3da91951	0.08256782
130	0x3e107a7e	0.14109227
131	0xbd30bf4e	-0.043151192
132	0x3bc2647f	0.00593239
133	0x3d43daec	0.047816202
134	0x3e1a5b46	0.1507388
135	0x3e472826	0.19448909
136	0x3c5fd028	0.013660468
137	0x3d232bbc	0.03983663
138	0x3dbdc2b1	0.0926565
139	0x3e29a76c	0.16567773
140	0x3e46e979	0.19425
141	0x3d649e9c	0.055815324
142	0x3cf89d35	0.0303484
143	0x3dbe78dc	0.09300396
144	0x3e4492b1	0.19196583
145	0x3e550de7	0.20806085
146	0x3dba6fc7	0.09103351
147	0x3d3e48b9	0.046456072
148	0x3cfdc30f	0.0309768
149	0x3de24b44	0.11049512
150	0xbec1f7b4	-0.37884295
151	0xbe06c03c	-0.13159269
152	0xbdf5bdbd	-0.1199908
153	0xbd30540e	-0.04304891
154	0x3d0e8aa0	0.03480017
155	0xbe66295d	-0.22476716
156	0xbe04d808	-0.12973034
157	0xbca5129f	-0.02015048
158	0xbd1765a9	-0.036962185
159	0xbbc03557	-0.0058657336
160	0xbe7a8774	-0.24465734
161	0xbe2b88be	-0.16751382
162	0xbdc71c63	-0.09722211
163	0xbe05774c	-0.1303379
164	0xbe0ab566	-0.1354576
165	0xbe9da60c	-0.30790746
166	0xbe25e689	-0.16201223
167	0xbdfbba21	-0.12291361
168	0xbe3f60ab	-0.1868922
169	0xbe50742e	-0.20356819
170	0xbe4fe77b	-0.20303147
171	0xbe30b889	-0.17257895
172	0xbe6aaaad	-0.2291667
173	0xbe88d151	-0.26722196
174	0xbef7e868	-0.484195
175	0xbccd0ec3	-0.025031453
176	0x3ced1230	0.028939337
177	0xbd07cbff	-0.03315353
178	0x3d2f96d7	0.04286846
179	0xbc50eb5a	-0.012751425
180	0xbd2ff503	-0.04295827
181	0x3c4131c7	0.011791653
182	0x3c147027	0.009059942
183	0x3d21b36a	0.039477743
184	0xbd324a40	-0.04352784
185	0xbcc7557d	-0.024332756
186	0xbcd8686d	-0.026416982
187	0xbb9be5f2	-0.004757636
188	0x3d37e94a	0.044900216
189	0x3d11a748	0.035559922
190	0x3c073db3	0.008254456
191	0xbc704413	-0.014664668
192	0xbd1e7ff7	-0.038696256
193	0xbce7c4ea	-0.028292138
194	0xbc91b2f7	-0.017785532
195	0xbd091f52	-0.033477135
196	0x3caf2cbd	0.021383638
197	0xbc6e216d	-0.0145343365
198	0x3d03080d	0.0319901
199	0xbb8517e7	-0.0040616873
200	0xbcfa599d	-0.030560309
201	0xbd143834	-0.036186412
202	0xbd8558ea	-0.065111
203	0x3d9972f6	0.0749263
204	0x3d863feb	0.0655516
205	0xbc532121	-0.0128863165
206	0xbdadde18	-0.08489627
207	0xbb5985f2	-0.003319141
208	0xbcb553fe	-0.022134777
209	0xbc93cc40	-0.01804173
210	0xbde43267	-0.11142426
211	0x3cd21b52	0.025647793
212	0x3cf353e9	0.029703097
213	0x3c4be22d	0.012444061
214	0xbd83bffc	-0.064331025
215	0x3d3677fd	0.044548023
216	0x3da067a4	0.07832268
217	0x3dc9261f	0.09821724
218	0x3da98a87	0.08278375
219	0xbd9d7d14	-0.076898724
220	0x3c88dca6	0.016706776
221	0xbb3f29a5	-0.002916911
222	0xbc85429e	-0.016267117
223	0xbb3533c4	-0.0027649263
224	0xbe112be9	-0.14176907
225	0x3e868464	0.2627288
226	0x3e4cb618	0.19991338
227	0x3e1f151e	0.155354
228	0x3e411158	0.18854272
229	0x3dda9cb6	0.106744215
230	0x3e967853	0.29388675
231	0x3e854c14	0.26034606
232	0x3e872a63	0.26399526
233	0x3e38d4ab	0.18049876
234	0x3de67247	0.112522654
235	0x3e5a2bd9	0.21305789
236	0x3e0219a4	0.12705094
237	0x3e0cdb5d	0.13755555
238	0x3d9decbf	0.07711171
239	0x3ddcd760	0.10783267
240	0x3dbfdf16	0.09368722
241	0x3c1e16f7	0.00964903
242	0x3b757f97	0.0037460083
243	0x3ce64bc3	0.028112298
244	0x3e06c8ee	0.13162586
245	0x3d555658	0.052084297
246	0xbd8399b2	-0.064257994
247	0x3cdf7cd8	0.02728121
248	0xbc82e047	-0.015976084
249	0x3e127111	0.14300944
250	0x3dc4b245	0.09604315
251	0x3a8856d7	0.0010401857
252	0xbe0e0966	-0.13870773
253	0xbe977946	-0.29584712
254	0xbef7b671	-0.4838138
255	0x3df20977	0.118182115

fc2.bias f4 [10]
0	0xbfcd538e	-1.6041124
1	0xbf6317d4	-0.88708234
2	0xbf5db72f	-0.8660764
3	0x3ee7ca8c	0.45271719
4	0x3f5d6e98	0.8649688
5	0xbe8acd07	-0.27109548
6	0x4027ab72	2.6198392
7	0xbf0df671	-0.55454165
8	0x3f183cf4	0.5946801
9	0xbead6e41	-0.3387318
