result/model_cnn.pth (torch, 434831 bytes, 8 tensors)

conv1.weight f4 [6, 3, 5, 5]
00000000: ded4 883d 505e 8e3c 7bbb 653c 8d6b 563d
00000010: 2359 cebd bf65 d0bd bbac 4dbd 9c9d f53c
00000020: 0f36 d63d ad32 3ebd f96a 043e 927c 2bbe
00000030: faa1 c4be d98a edbe f007 113d fe40 e7bc
00000040: e615 263d c9fb 583e 5829 0a3e 8b77 2e3e
00000050: 06ae 93bd e5fe 153e c18d a23d 6b04 bc3d
00000060: 80de ee3c 5b59 36bc 0d5e 163e a979 993d
00000070: 9839 213e 30a2 e4bc 600a 8c3d b974 ec3b
00000080: 4104 a83c 4f38 ef3d 29fc 5f3b 9321 e33d
00000090: d35a 77bd 43d9 afbe 8c58 00bf b7b8 3cbd
000000a0: 62dd fd3c aeb1 80bd 2a9b 3a3e 88b5 ac3e
000000b0: a275 adbc 9f47 d5bd 1588 9ebc 5bdb 4d3e
000000c0: bde5 a23d 3a58 78be d00c c8bd ae00 3a3d
000000d0: 933a 5a3e fa6d 18bd 1c50 f13c f12b 1dbe
000000e0: 3b89 093e 6a28 293c 19e1 2c3e 068c 203d
000000f0: 44ae 443e 0818 88be 2bf5 a9be df09 08bf
00000100: 57a7 04bd 94b9 11be de47 6bbc f0d7 92bd
00000110: 0869 5c3e cf1c 0a3e 06b3 e4bb aed7 443d
00000120: cc06 9c3d cdf7 f03d 606a a33d bb6c 1c3e
00000130: a5aa 5a3e 9aac 9bbc c212 993d 7e55 bb3d
00000140: e6f0 863e 67a9 3fbd 32fd 3ebe 31ec 81be
00000150: 5cd2 06bd a0fb a8bc e091 81be a9c1 8abe
00000160: 047a 7bbe 27f5 1abd 229e 2c3e 4d1b 05be
00000170: 8bdd 0bbe c744 28be d488 9cbd 8dc4 da3c
00000180: 020d 91bd 4c7d 96bd 16b6 863c e512 0e3d
00000190: 4b39 0d3e c7e9 b83c 6704 313e 5683 b33d
000001a0: cfdc fc3c 5720 c1bd ebeb dabc b167 fcbd
000001b0: a30b b6bd b004 3b3c 3e93 8d3d 92bf b53c
000001c0: 223e e63d 3ef5 4b3d 834a 763c 35da d8bd
000001d0: e667 33be 2a87 b7bc 074b 94bd d264 9eba
000001e0: 046b 7cbe 786c b0bd ee1c e3bd 2fe1 c6bd
000001f0: bd2a 67bd 94da 43be a0a6 66bd 4582 c23b
00000200: 701d afbd cd6c 14be fc0b 8dbe b307 ef3b
00000210: 109e ae3d 592b 1f3e df84 2bbd 5e53 0f3e
00000220: 28f1 8a3e d97c 453e c98e 993e cadf 16bd
00000230: ae5e 5bbd de07 173e e509 0a3e 79b1 433e
00000240: f889 213e abbc 003e 0150 f03d 2472 663e
00000250: 306b d43d 6749 7dbd f7c9 863e 04b5 123e
00000260: ab06 8d3c b388 e0bd 5aba 86bd 620a 123e
00000270: 01b3 993e 61d8 613e f3de 6c3d 51e0 f4bd
00000280: 7447 333e b1fe 2a3e 6072 663e dd65 0b3d
00000290: ab9a f8bd 0709 52bb 5f34 a13d 528b c73d
000002a0: 436b 9fbd 02f0 dcbd 528a f9bd 2792 a0bd
000002b0: 4870 0abe 4b43 fcbc ee0f f2bd 0ffd 33be
000002c0: c4a5 82bd 9ecd a23c ebb6 46bc 9e5e 783b
000002d0: 1500 59be a763 3dbe 87b5 17bd 2a2b 86bd
000002e0: 0886 8f3d e393 9ebe aea8 84be dfb0 39be
000002f0: 8b11 803d 4ce2 853d 211a c8bd d366 08be
00000300: b5fd 9fbe 8160 bd3d b548 2f3e 65f8 563d
00000310: 865f 7c3c 2194 b5bc 9774 04bc e43c c43d
00000320: 4567 c6bd 1cd2 e33c 7586 2f3d 5769 0f3e
00000330: f6ee 8fbc 047c efbd ce31 2ebe 1ecf eabd
00000340: 29d3 d43d 01af a23d 8238 9a3c e298 64be
00000350: 6ccf 13be 0f65 e53d 76b8 5b3e 8f96 cf3d
00000360: 243d 8cbe 1c90 a7bd 6577 063e c183 353e
00000370: 5984 bd3d 69a1 12bd 1ec9 55bd 9b16 4d3d
00000380: 1447 953e 9439 8dbc 7ff0 1ebe e138 2cbc
00000390: 1c05 173b 8ca2 a23d 3c64 8dbd f162 a53d
000003a0: 6ab1 72bd e3b6 4abe bf86 483e 5501 91bd
000003b0: f31c 6c3e 0877 b3be e4e8 63be a821 803e
000003c0: 3193 70bc b842 273e dcc7 9bbe 55ab 40bd
000003d0: 9b11 403e b8da c6bc 3f5d a33d 74f4 153d
000003e0: 4ada 433d 603b d83d d0fc 693d df34 073e
000003f0: 61b8 88bd 3605 d33c 45c6 c9bd a14f a73d
0.06681226 0.017378956 0.01402175 0.052348662 -0.10075595 -0.101756565 -0.050213557 0.02998238
0.104595296 -0.046435047 0.12931432 -0.16746739 -0.38404828 -0.46394995 0.03540796 -0.028229233
0.040548228 0.21189798 0.13492334 0.1703779 -0.07210927 0.14648016 0.07937194 0.0918053
0.02915883 -0.011129702 0.14684315 0.07493908 0.15744627 -0.027909368 0.068379164 0.007216063
0.02050984 0.11680662 0.0034177399 0.11090388 -0.06038935 -0.34345445 -0.5013511 -0.046074595
0.030989353 -0.0628389 0.18223253 0.33732247 -0.021174256 -0.10414051 -0.019351998 0.20103209
0.07953975 -0.24252406 -0.09768069 0.045410804 0.21311407 -0.037214257 0.029457144 -0.15348794
0.13431256 0.010324577 0.16882743 0.039196037 0.19207102 -0.26580834 -0.3319486 -0.5314006
-0.03238615 -0.14230949 -0.014360396 -0.07170093 0.21524441 0.13487552 -0.006979349 0.04805725
0.07618484 0.11766014 0.07979274 0.15275852 0.21354158 -0.019003201 0.07474281 0.09147166
0.26355666 -0.046792414 -0.18651274 -0.25375512 -0.032915458 -0.020627797 -0.25306606 -0.27100876
-0.24558264 -0.03783145 0.16857198 -0.12998696 -0.1365873 -0.16432486 -0.076432854 0.02670505
-0.07082559 -0.07348117 0.016444247 0.034685988 0.13791387 0.022572411 0.17286836 0.08765285
0.030867008 -0.094299965 -0.026723823 -0.12324465 -0.08888938 0.011414692 0.0691285 0.022186074
0.1124232 0.049794428 0.015032413 -0.10588495 -0.17520103 -0.022403318 -0.07240873 -0.001208449
-0.24650198 -0.08614439 -0.11089502 -0.09710919 -0.056437243 -0.1912635 -0.05631125 0.0059359395
-0.08550537 -0.14494629 -0.27548206 0.007294619 0.08526242 0.1554388 -0.041874763 0.13996646
0.27137113 0.19285907 0.2999175 -0.036834516 -0.05355709 0.14749095 0.13480337 0.19110669
0.15775287 0.12571971 0.117340095 0.22504479 0.10372007 -0.06183758 0.26325962 0.14326864
0.017215094 -0.10963573 -0.065785125 0.14261773 0.30019382 0.22055198 0.05782981 -0.119568475
0.17507726 0.1669872 0.22504568 0.03403269 -0.121388756 -0.0032048838 0.07871317 0.0974337
-0.077841304 -0.10787965 -0.12184586 -0.07840376 -0.13519394 -0.030793807 -0.118194446 -0.17577003
-0.063792735 0.019873437 -0.012128572 0.0037898193 -0.21191438 -0.18495046 -0.037038352 -0.06551202
0.07007986 -0.30972204 -0.25909942 -0.18133877 0.06253346 0.06537303 -0.09770609 -0.13320474
-0.3124825 0.09246922 0.1711758 0.05248298 0.015403634 -0.02216536 -0.008084438 0.095819265
-0.09687666 0.027810149 0.042852838 0.14005028 -0.01757 -0.11693576 -0.17011186 -0.11465286
0.10391838 0.079435356 0.018825773 -0.22323945 -0.14434594 0.11200916 0.21457085 0.10136139
-0.27390397 -0.081817836 0.13131483 0.17726041 0.09253759 -0.035798464 -0.052193753 0.050070386
0.2915579 -0.01723937 -0.1552143 -0.010511608 0.0023043817 0.079411596 -0.06903884 0.08075512
-0.059251226 -0.19796328 0.19582652 -0.07080332 0.23057918 -0.3505175 -0.2225681 0.25025678
-0.014683531 0.16334045 -0.30425918 -0.047038395 0.18756716 -0.024274215 0.0797677 0.03661008
0.0478156 0.105582 0.057125866 0.13203762 -0.066757925 0.02575932 -0.0985227 0.08169485

conv1.bias f4 [6]
00000000: 4cb6 ef3c ce99 3c3e 9980 133e ca30 36bc
00000010: f8e6 73be 5b2d 02be
0.02926173 0.18418047 0.14404525 -0.011120031 -0.23818576 -0.12712614

conv2.weight f4 [16, 6, 5, 5]
00000000: f467 f7bd 4fdf 72bd 9d29 2ebe 18a0 a2bd
00000010: 0bc1 55bd c0d5 9ebe dd1b 47be 194e febe
00000020: e00e a2be a071 83ba a7ec 8e3e 3cae a93e
00000030: f99e 523d 32f6 abbe c740 f0bc 859e 943e
00000040: 8ea5 803e b9f5 293e a79c cebc 4c1f 973c
00000050: 3b83 143e 7e43 e33d 74e3 893d 2f7e 86bd
00000060: 7568 26bc 22bf 973d a87a 223d ab29 cdbc
00000070: f9c6 683e 0303 363e faa5 adbd 3a4e 83bd
00000080: 5380 b5be 77d7 11bc 1cfa 0f3e a219 b5bd
00000090: 2998 9abd 983b 26bf b09b 98be b15f 56bd
000000a0: 3a03 123e 99d7 8e3e d624 fabd 9ac0 6ebe
000000b0: eeeb 22bc 09c8 9e3e 860d d13e 5ef9 1d3d
000000c0: c938 f8bd 77c0 76bc 70d2 053d d733 173d
000000d0: 2e05 d43d 5b30 8b3d 0a9b 0f3d 0df4 cebd
000000e0: edca 35bc 87af 533c 5e66 ac3d 83a9 e03b
000000f0: ccf9 e53d 9599 e6bd 1fe7 193d 3d69 c23d
00000100: 6ee2 ffbc 13b4 88bd 5f55 dabe e44f 853c
00000110: 8eca 763c 2536 f4bc e0fb 98bd 737a 16bf
00000120: f9c5 0abe 62a6 40bd c418 b9bc e52d 803d
00000130: 7a12 143d d510 9f3d f685 e73d 7d9c d43d
00000140: 69e4 9ebd 2e98 4abe 8ef7 d13c d858 5a3d
00000150: de51 ee3d c007 31be 9657 63be 6411 64b9
00000160: 16da 663d c93f c83d 313b 9dbd 403d 32be
00000170: f448 223d 6049 a13c 69e8 63bd 818a 64be
00000180: 5adf 27bf 718f 9f3d 4c6d 773e 6b61 473e
00000190: e0eb 553e eab2 cd3d 2488 823e 1277 753e
000001a0: f7bf 18bd fb5f 3fbe 0de6 84be 7a9a 50be
000001b0: bf1b 343c 4307 8fbe 0a44 e1be e752 51be
000001c0: a13b c2bd 4ad0 f8bc 897e bfbe 745e c4bd
000001d0: 47fa 143e af4b 333e 2f65 15be d52b 8fbe
000001e0: cd10 7bbe e6d5 dabc cd20 cb3e 0368 b53e
000001f0: 14ba 26bd 07e1 32bd a3f5 b3bd a92f 6ebc
00000200: ea93 14be 5b90 673e 4d4b 82be c019 14be
00000210: f763 57bc cbb4 10bf 5bb0 ffbe ca94 08be
00000220: d945 193e 8f73 d33d 3b43 84bd 0855 c2be
00000230: da83 9cbe 19bc d6bd a2ab 6ebd 0181 803d
00000240: 707b 41be 71ef 72bb 7819 d33d 91b5 2bbd
00000250: 3fb0 e93d d129 bd3d 2397 5ebd 9603 a1bd
00000260: 36b9 cbbb bd81 5dbd 1e50 c33d 0572 d6bd
00000270: 1681 c93b 3956 b93d db97 dc3d c8ce b33d
00000280: 35ab 6e3c 3bfe 343e 4245 b13d 7aa8 c43d
00000290: 43c6 313d a71c 2abe 75b9 293d 8152 d5be
000002a0: b854 b3be 97a8 2fbe fad1 a1be 7db1 993e
000002b0: f872 473c 0e23 72be 601a 9e3c 1ebb e33b
000002c0: dc31 0d3e c1b2 c33e 3480 b23d 7744 f83c
000002d0: 48f8 85be e184 10be f90b 31be 3746 4dbe
000002e0: 565b 66bd ec31 ffbd 425c 5e3d a6e1 dd3d
000002f0: d42c 2b3e b921 c43d c1e1 a9bd 8571 dbbc
00000300: d25e 1d3d 537d 56bd 4d39 4fbe b93e 82bd
00000310: 3658 ac3e e056 a1bd f8b6 85be ca8c 11be
00000320: f687 193d 9a1a 6d3e 2dc2 083d 1bf9 76ba
00000330: e040 093d 483a 02be f7a3 3bbd bc25 343d
00000340: c0a2 0bbe d468 1fbd fdf1 a0bd 262b 29be
00000350: 6062 95be f4b8 dbbe d963 73be ef9e a8bd
00000360: 92b0 85bd 05bd 5e3d 0ece 1dbe 95ef 373d
00000370: 5482 133e d41e 35be 37a1 383e 576d 593e
00000380: bc54 cf3d d12c 5b3e 1fb9 7d3e 4246 543e
00000390: 8a00 393e 2ee3 213e 48ae 73bc ef6d 523e
000003a0: 947a 973e 7ae8 833e 8dda 553e 3a43 acbe
000003b0: da1b 14bf 46bc fbbe 2e97 09bd 77b8 51be
000003c0: 2266 d7be b18a 28bf d0b7 a6bf 031c a9bf
000003d0: 43b5 fdbe bfda a73e 1fa7 e63e 3e1e e63e
000003e0: 875c c4be 994c 823d 261f 053d 0e6e 93bd
000003f0: 93d7 10be 9dfe efbd 3a60 91bd e0dd 04be
-0.12080374 -0.059294995 -0.17008062 -0.07940692 -0.052186053 -0.31022453 -0.19444223 -0.4966896
-0.31651974 -0.001002837 0.27914926 0.33140743 0.05142114 -0.3358627 -0.029327763 0.2902719
0.25126308 0.16597642 -0.025221182 0.01844754 0.14503185 0.110968575 0.06732836 -0.06567036
-0.01015674 0.074095026 0.039667755 -0.025044283 0.22732152 0.17774586 -0.08478923 -0.06411405
-0.35449466 -0.0089014685 0.14060253 -0.0884278 -0.075485535 -0.6493468 -0.2980628 -0.052337352
0.14259043 0.27898863 -0.12214057 -0.23315659 -0.009943945 0.3101199 0.4083063 0.038567893
-0.12120206 -0.015060536 0.032671392 0.036914673 0.103525504 0.067963324 0.035059966 -0.10105143
-0.011095745 0.012920267 0.084179625 0.006856145 0.112292856 -0.11259762 0.03757393 0.09492729
-0.0312359 -0.066749714 -0.42643258 0.016273446 0.015062941 -0.029810974 -0.07469916 -0.5878059
-0.13552083 -0.047033675 -0.022594817 0.06258754 0.036150433 0.07766882 0.11304848 0.1038141
-0.077584095 -0.19784614 0.025630739 0.053307384 0.11636709 -0.17288113 -0.2220138 -0.00021750253
0.056360327 0.09777791 -0.076773055 -0.17406178 0.039620355 0.019688308 -0.055641565 -0.2231846
-0.6557518 0.07791031 0.24162787 0.19470756 0.2089076 0.10043891 0.25494492 0.23971203
-0.037292447 -0.18688957 -0.25956765 -0.20371428 0.010992943 -0.27935228 -0.43997222 -0.20441781
-0.094840296 -0.030372757 -0.37401226 -0.09588328 0.14548598 0.1750934 -0.1458938 -0.2796313
-0.24518128 -0.026713323 0.39673463 0.35430917 -0.0407048 -0.043671634 -0.08787086 -0.01453773
-0.1450955 0.22613661 -0.25448075 -0.14462948 -0.013146392 -0.5652587 -0.49939236 -0.13338009
0.14968051 0.103247754 -0.06458136 -0.379555 -0.30569345 -0.104850955 -0.05826915 0.062746055
-0.18894744 -0.0037068988 0.10307592 -0.041921202 0.114105694 0.092364915 -0.054343354 -0.07862012
-0.006217147 -0.054078806 0.095367655 -0.10470966 0.0061494214 0.09049649 0.10771152 0.08779675
0.014567186 0.17675106 0.08655788 0.09602447 0.043401968 -0.16612493 0.04143663 -0.41664508
-0.35025573 -0.17154156 -0.31605512 0.30018225 0.012173407 -0.23646185 0.019299686 0.0069497963
0.13788551 0.38222316 0.08715859 0.030306084 -0.26165986 -0.1411319 -0.17289723 -0.20046316
-0.05623945 -0.12460694 0.054287203 0.10834055 0.1671632 0.095767446 -0.08295012 -0.026787529
0.038420506 -0.052365612 -0.20236702 -0.0635962 0.3366105 -0.07877898 -0.26116157 -0.14213863
0.037483178 0.23154679 0.033388305 -0.0009421275 0.033509135 -0.12717545 -0.045810666 0.0439813
-0.13636303 -0.03891833 -0.078586556 -0.16520366 -0.29176617 -0.42914546 -0.23768558 -0.08233439
-0.06527819 0.05437948 -0.15410635 0.044906218 0.14405185 -0.17687541 0.18030249 0.21233116
0.10123584 0.21403815 0.2477765 0.20729926 0.18066612 0.15809318 -0.014873095 0.20549749
0.29585707 0.25763303 0.20884152 -0.3364504 -0.57855 -0.4916708 -0.03359144 -0.20480524
-0.4207011 -0.65836626 -1.3024845 -1.3211673 -0.49552354 0.32784078 0.45049378 0.44944948
-0.38351843 0.06362266 0.03250041 -0.07198726 -0.14144735 -0.117184855 -0.07098432 -0.12975264

conv2.bias f4 [16]
00000000: 8c5e ea3d 57ae 203e 141d a03e c19d adbd
00000010: 4217 e0bd 6803 bc3e e12c 853e 6d8e a6bd
00000020: 1b54 a83d 206c 31bd bc42 123e 0760 10be
00000030: 0b46 b33b 7852 9a3e 834e b9bd 2f09 05be
0.11443815 0.15691505 0.31272185 -0.08477355 -0.10941936 0.3672135 0.26010802 -0.08132634
0.08219167 -0.043316007 0.1428327 -0.14099132 0.0054709963 0.30141044 -0.09048178 -0.12991785

fc1.weight f4 [256, 400]
00000000: 572d 84bd d184 c1bd 67ea 45bc 0b92 04be
00000010: 044a fbbd aad8 bdbd 4943 cabd 0e5e 44bd
00000020: a617 56be 7a01 93be dadf 07be 7283 41be
00000030: b340 d2be 4616 7abe e4ff a2be 8b48 723d
00000040: 5b12 d6bd 3027 97bd 75f7 76be 6e66 e4bd
00000050: fa45 02be 3f71 96be cc44 a4be 64bf 0bbe
00000060: c760 16bd 611b dbbe 2b35 58be e093 9dbe
00000070: 2fd3 afbe 06a8 07bc d707 43be 278e 93be
00000080: 9160 d1be 3185 4bbc a9fe 60be a614 f3bd
00000090: 9c03 40be 93d3 99be 25d4 6abe 88f5 44be
000000a0: e180 43be e568 d5bc fb8f 13be a8a7 02be
000000b0: 233f 15be b8db 93be 406f 13be 1a05 5cbe
000000c0: eaa7 8abe 311c 40be 1669 86bd 0e9b 3dbe
000000d0: 70ab c4bd 3ed5 94bd 2196 53be 5df3 0bbe
000000e0: 6cff b23c 8ae7 bf3d 7582 4b3e 8d0e 613c
000000f0: 4378 adbd 317a 08be 8fef 58be c0ec cfbc
00000100: 9681 9bbd d8f0 17be c622 2cbe bdb6 91be
00000110: 4bad 80be d059 5ebe e272 46bd 2fb8 5cbe
00000120: 1c31 35be 2d1b 58be 59bf 4dbd 67d6 aeb8
00000130: f09a fe3c ea73 1f3d 0a22 31bd 84d2 32bd
00000140: 9bb6 0bbd d3ba 23bd 40f4 1f3c c04c f83c
00000150: 848a 893c 876d 66bc 4d49 eabc f88a 26bd
00000160: 5af4 c13c 135b 04bc c3b7 92bc 13f9 73bc
00000170: 87a0 363d e7f7 ab3b 4726 403c 2ad7 bc3c
00000180: 27ad 38bc 6756 bbba 8d92 e6bc 9d3f 92bc
00000190: 810b fcbd 7945 a73d 4168 9a3e c1cf 8fbd
000001a0: 3b0a 38bc 0378 e7bd 6f3c 513e b9fb 6a3e
000001b0: 929d 543d 0ddf 55be fccc 233d 428d d13d
000001c0: d875 5d3e cfac 9abc 2586 81be 56c3 7dbd
000001d0: cc17 923d eb49 b2bc f0c0 e13d 92d5 dc3d
000001e0: 21bc 62be 2100 933d a9c5 08bd 453d 133e
000001f0: 39da 943d d8a0 423c ac7c 0f3e 7d28 a93d
00000200: 195d 523e 5757 8b3e 1a7e 5f3c 9a1a c43d
00000210: 6da0 b73d 947f a83d 3f1d 703e 59ba e83d
00000220: f7b7 ee3b 7488 763e 6a4f 853c 076c aa3d
00000230: 5d96 413e f7b4 253e 5e68 e23d 3433 ac3c
00000240: 3ee8 093e c3e7 473e fb62 db3d 8204 323e
00000250: 7095 773e 0d0a 463e 7e35 543e e11b 2d3c
00000260: 58a9 303e 5717 283e 5195 de3d 223d 283e
00000270: f4ca 543d fc5f cf3d 4086 b73c 3e52 073e
00000280: 21a0 253e e926 d4bc d34e a93c a889 bd3c
00000290: ed1b 6e3e b98b dd3c 1608 23bd 0eef 34bd
000002a0: 5e5e a5be f4d7 30bb bdb1 9b3e 4d8b 2b3d
000002b0: a5cd fb3d 2084 703e a414 b63d aa1c 87bc
000002c0: 5708 9cbc 67b0 96bb 00f6 1eba 4a2a e9bc
000002d0: 5ff0 29bd edb6 8bbc 7300 b4bb 0af1 b0bc
000002e0: 7500 473d 3bab 39bd 1aba d83a a1ed 5939
000002f0: af3f d13c 33fb c839 fdd8 2cbd d026 133d
00000300: aae5 ac3c 3349 acbb 4df1 ad3b 97bc f0bc
00000310: 4d90 78bc cdd2 e73b 9aae d23a 4dc3 863c
00000320: 1c7d 11be 7c46 473d e10f 44be 371d 85be
00000330: 16e4 a9be 4dd6 b43d 690d 063e 54d3 dc3d
00000340: c217 d73d e7c2 483c a797 0e3d b33e 933e
00000350: 7e01 5d3d 9586 693e cf20 d73d 41ff 00bd
00000360: 57c3 fbbc cb95 e73c ad1e 1c3e 6d2e 4dbd
00000370: 7f07 433d bdca 39be 3bcb a1bd e81d 4c3e
00000380: 57ad 32be 6697 153d 1424 04be de6b 66bd
00000390: f4d2 9e3d 1ae6 3ebe ccfd febd c8ca 41be
000003a0: 63fe 25be a41e b43d 947e eebb df08 e7bd
000003b0: 162f 09be cbbf abbc b738 62bc bf4e 453d
000003c0: 16d2 0f3e 8d19 18bd 661e 8d3c ab40 3d3e
000003d0: d1e5 4f3d 69fa 92bd 3605 e9bd 8073 c53d
000003e0: 0a13 6e3d 210c c63d ef12 3dbe 79a7 e0bd
000003f0: d5b1 ea3d 14f9 88bc 8f36 1abd 9eb7 993d
-0.064539604 -0.09449161 -0.012079812 -0.12946336 -0.12269977 -0.09269841 -0.09876115 -0.04794126
-0.20907459 -0.28712064 -0.13268986 -0.18897799 -0.41064987 -0.24422559 -0.31835854 0.059151214
-0.1045272 -0.07380521 -0.24117835 -0.111523494 -0.12722006 -0.29383275 -0.32083738 -0.13647228
-0.036713388 -0.42794326 -0.21114032 -0.30776882 -0.34340808 -0.008279806 -0.1904596 -0.2881939
-0.40893987 -0.012421892 -0.21972145 -0.11869173 -0.18751377 -0.3004423 -0.22932489 -0.19234288
-0.19092132 -0.026050994 -0.14410393 -0.12759268 -0.14574866 -0.2887857 -0.14397907 -0.21486321
-0.27081233 -0.18760754 -0.06563012 -0.1851618 -0.096030116 -0.07267235 -0.20662738 -0.13667054
0.02185031 0.093703344 0.19873984 0.013736379 -0.08470204 -0.13327862 -0.21185134 -0.025381446
-0.07593076 -0.14837968 -0.1681014 -0.2845973 -0.25132212 -0.21713948 -0.048449405 -0.21554635
-0.17694515 -0.21104117 -0.05023131 -8.336902e-05 0.03107974 0.038928904 -0.043245353 -0.043657795
-0.034109693 -0.03997309 0.009762824 0.030310035 0.016789682 -0.014064199 -0.028599406 -0.040659875
0.023676086 -0.008078354 -0.01790989 -0.014890927 0.044586685 0.005248058 0.011727876 0.023051817
-0.0112717515 -0.0014292718 -0.028146053 -0.017852599 -0.12306882 0.08167548 0.30157664 -0.07022048
-0.011232908 -0.11302187 0.2043321 0.22947587 0.051908083 -0.20885868 0.03999041 0.10232021
0.21626985 -0.01888123 -0.25297657 -0.061953865 0.07133445 -0.021763762 0.11023128 0.10782923
-0.22142078 0.07177759 -0.03339163 0.14378841 0.07268185 0.011879168 0.14012402 0.08259676
0.20543326 0.27215073 0.013640905 0.09575386 0.08966146 0.082274586 0.23448656 0.11363668
0.007285114 0.2407549 0.01627322 0.08321386 0.18905015 0.16182314 0.11055063 0.02102051
0.134675 0.19522004 0.107122384 0.17384532 0.241781 0.19339772 0.2072353 0.010565729
0.172521 0.16415153 0.108683236 0.1642957 0.051951364 0.101257294 0.022402883 0.13214967
0.16174366 -0.02589746 0.02066747 0.023136929 0.2325284 0.027044164 -0.039802633 -0.044173293
-0.3229856 -0.0026984187 0.3040904 0.041880894 0.12295083 0.23487902 0.08890656 -0.01649316
-0.019046945 -0.0045986655 -0.00060638785 -0.028462548 -0.041489 -0.017055 -0.0054932176 -0.021599311
0.04858442 -0.045329314 0.0016534955 0.00020783256 0.025543062 0.0003833413 -0.042199124 0.035925686
0.021105606 -0.0052577495 0.0053083063 -0.029386802 -0.015171123 0.00707469 0.0016073764 0.016450549
-0.14207882 0.048651204 -0.19146682 -0.25998852 -0.33181828 0.08829937 0.13091053 0.10782495
0.10502578 0.0122535 0.034812596 0.28758773 0.0539565 0.22805245 0.105043046 -0.03149343
-0.030732794 0.028269669 0.15246077 -0.050093103 0.04761457 -0.18143745 -0.07900091 0.19933283
-0.17448936 0.036521338 -0.12904388 -0.056255214 0.0775508 -0.18642464 -0.12450752 -0.18925011
-0.16210322 0.08794907 -0.007278273 -0.11280989 -0.13396868 -0.020965477 -0.013807467 0.0481708
0.14044985 -0.037133742 0.01722641 0.184817 0.05075628 -0.07176668 -0.11377947 0.096411705
0.058123626 0.09670282 -0.18464254 -0.10969443 0.114597 -0.016720332 -0.037649687 0.07505725

fc1.bias f4 [256]
00000000: 7166 ab3a 3af0 cbbe 23b2 993e a29d f5be
00000010: 8c92 1abe 0005 69be b77e 893e 8986 e43e
00000020: 25e9 fdbe 0713 b1be 5594 233d 3fe6 233e
00000030: 1135 0abe 33fa d1be 91d9 84be ac60 263f
00000040: c090 dcbd 83d7 123d f7d3 8b3d bd7c f33e
00000050: bb15 d03e 2f7e a23e 31a7 bebe b7db edbd
00000060: 5d6b 67be a695 873e e982 983d 23de 353f
00000070: 91bd febd 00e1 a83d 398e 833d 2084 1a3e
00000080: 5a53 f2be eecd 2f3c 0dcd 5f3c 613c 4a3e
00000090: 81e7 c93e 57ba a0be ea0c 433e c5eb 453f
000000a0: a7ca 233e c09b 963d 9386 633e eed2 393f
000000b0: 595a 983e 1459 023f e84c 01bf d182 733e
000000c0: eadc 993e 328a 0dbe 2fad 76be 5d56 85bd
000000d0: e8c0 933e a5f6 c3bd 262f 6abe a285 a93e
000000e0: cc93 1abf fc6f 13bf 9569 db3e f2c1 173f
000000f0: c93a 43be b4fd d6be 280f 763e 65b7 493e
00000100: 9722 dfbe d2ec 0bbf 52e8 0ebf 6783 8a3e
00000110: 68cd 8dbd ca20 613e fbaf ff3e b104 453e
00000120: 3487 333e a6bb 863e a3e7 043f d183 c4bd
00000130: d567 93be 3879 f23e a72f 623e 85bd 25bd
00000140: 5861 f9be 657c 893e fe6d 043f 3b4e 75be
00000150: a560 d2be 2ecf 6f3e c523 5ebe 145d cebd
00000160: 629e 9abe 9cff 23bf 2e99 85be e2bb a13e
00000170: fce3 6cbe b8c9 0d3e 8a18 9d3c acc1 cdbe
00000180: 4901 0d3f 4339 9f3e e127 4d3e c7c2 ca3e
00000190: 7c6c ef3d a813 803e f3ed 783d 5484 23bf
000001a0: 13ea afbe 851b 193f a882 763e ae77 7f3e
000001b0: faf0 0dbf 3557 c3be c899 d43c 9bbb 10be
000001c0: f358 cebe 1703 4dbf ba6c 3b3e 9a64 da3e
000001d0: 5e64 c6be 721d 163f 0416 cd3e 3cb9 0f3e
000001e0: 00a4 9f3d a765 31be 3268 1b3e 21c3 873d
000001f0: f114 513e 1801 243d 2c6b 6c3e d005 353e
00000200: d9ff 36bd bfab 8c3e 05f4 aebe af16 e8bd
00000210: 2d11 793e c89b a5be 6870 7a3e ea99 023e
00000220: 6f8c 6b3e 9503 6abe 62a1 ab3e b021 de3e
00000230: 3c83 97be c5bd 82bd 5aff ba3d 33eb ffbd
00000240: 1cc9 7a3d 24b4 1f3e a0bb 13be 1563 0b3c
00000250: 15a1 d43e 446a 07be f271 16be 6653 6e3e
00000260: f83c 18be 17de ff3e 7fd8 183f 17aa ef3e
00000270: 125e 323d 97f4 053f a3d1 83bc 5f7e 9a3e
00000280: e9bb 8a3e d96c 7c3e 5fc6 18be 2c80 0fbe
00000290: 320c c0bd 7ea4 c63d 1d11 293e f730 0abf
000002a0: 163e bb3e cfb1 e23d 0ec5 36bf 904b a73e
000002b0: 0c2e b4bd fe92 12be 9be3 6ebd c08e bc3d
000002c0: 651d 30be feb9 2b3f cdc9 c53e 86b8 bbbd
000002d0: 5e69 d53e a8c1 a53e 10e3 913e 0121 013e
000002e0: 6be1 8a3d 73f7 073e 28bb babe 8187 8bba
000002f0: 3534 143f d005 c43e ae23 3a3e 3170 0cbe
00000300: a8ab 423d c505 a03e 54c8 6ebe 9f72 d0be
00000310: 15a8 4a3e 7ee6 593e 33d7 6a3e 787d 8c3e
00000320: bc4b ab3e c0d7 f53d d623 96bd ac45 6dbe
00000330: 13b4 30bf bcb1 96be eace af3e ab3c e0bd
00000340: 9272 2b3e cb34 b93e 3e15 e8be ba69 e13c
00000350: c0ef 4dbe c9c8 23bf 0926 1b3e 2d79 d63e
00000360: 9a4c 9f3e 9d01 1fbd ce95 66be 4b0a b33e
00000370: f275 1fbf 6f45 acbe ce26 1e3e 6b43 0a3d
00000380: 9ce9 8fbe 6bc3 1e3e 1be7 2cbe a96e 123e
00000390: 0780 76be 8313 143d 96a8 9f3c abfd a63e
000003a0: 4dbe 4d3f cb80 403f 517a 5cbd 9f35 8dbe
000003b0: cdb7 4f3e e1f1 a63e 2ac4 533e 95fe 7abe
000003c0: e108 27be 9eda 313e afc2 0e3e 5eeb aabe
000003d0: b150 2a3e 342f 1cbf 3a7c cb3e dc6d b6bd
000003e0: 0936 ad3e 5f6b 903e b7bd 813e 6184 ffbe
000003f0: 0bcd a3bd 1e77 c83e ca26 7ebe 23dd aa3e
0.0013076795 -0.39831716 0.3001872 -0.47971827 -0.15094966 -0.22755814 0.26854488 0.44633892
-0.49591938 -0.3458483 0.039936382 0.160058 -0.13496806 -0.410112 -0.2594724 0.6499126
-0.10769796 0.03585006 0.068275385 0.47556105 0.4064158 0.31736895 -0.37236932 -0.11614173
-0.2259955 0.2648136 0.07446844 0.7104208 -0.12438501 0.0824604 0.06423611 0.15089464
-0.47329217 0.01073025 0.013659728 0.19749595 0.39434436 -0.31392166 0.19047895 0.7731288
0.15995274 0.07353926 0.22219305 0.7258748 0.2975643 0.5091717 -0.50507975 0.23780371
0.30051357 -0.13822249 -0.24089502 -0.06510613 0.28858113 -0.09568528 -0.22869548 0.33109766
-0.6038177 -0.5759275 0.4285399 0.5928031 -0.19065394 -0.41990435 0.24029219 0.19698866
-0.43581077 -0.54658234 -0.5582324 0.27053377 -0.06923944 0.21985164 0.4993895 0.19240071
0.17532045 0.2631504 0.5191595 -0.095954545 -0.28790155 0.47358108 0.2208849 -0.040463943
-0.4870708 0.26852718 0.51730335 -0.23955624 -0.4108936 0.23418877 -0.21693332 -0.10076347
-0.30198961 -0.64061904 -0.2609343 0.31588656 -0.23133844 0.13846481 0.01917674 -0.40186822
0.55080086 0.31098375 0.20034744 0.39601728 0.116906136 0.25014997 0.0607738 -0.6387379
-0.34358272 0.59807616 0.24073279 0.24947998 -0.55445826 -0.3815247 0.025952235 -0.14134066
-0.40302238 -0.8008284 0.18303195 0.42654878 -0.3874845 0.5863868 0.4005586 0.14035505
0.077949524 -0.17323934 0.15176466 0.06629015 0.20418145 0.040040106 0.23087758 0.17677999
-0.04467759 0.27474782 -0.34170547 -0.113324516 0.24322958 -0.32345414 0.24456942 0.12754026
0.2300279 -0.22852929 0.33521563 0.43385077 -0.2959231 -0.06383852 0.09130736 -0.124960326
0.06122695 0.15596062 -0.14427042 0.00850751 0.41529146 -0.13224131 -0.14691904 0.23274001
-0.14867008 0.4997413 0.59705347 0.46809456 0.043546744 0.5232634 -0.016091174 0.30174538
0.2709649 0.24650897 -0.14919423 -0.14013737 -0.09377326 0.09699343 0.16510434 -0.53980964
0.36570805 0.110690705 -0.7139443 0.32674837 -0.08797845 -0.14313886 -0.05832253 0.09206915
-0.17198713 0.67080677 0.38630524 -0.091660544 0.4168195 0.3237431 0.28493547 0.12610246
0.06781276 0.13277988 -0.36470914 -0.0010645242 0.5789216 0.38285685 0.18177673 -0.13714673
0.047526985 0.31254402 -0.23318607 -0.4071245 0.1979068 0.21279332 0.22933654 0.27439475
0.33456218 0.12004042 -0.07331054 -0.23171109 -0.6902477 -0.29432476 0.3433755 -0.109490715
0.16742924 0.3617309 -0.45328707 0.027516235 -0.20110989 -0.6397825 0.15151228 0.41889325
0.3111313 -0.038819898 -0.22518083 0.3496879 -0.62289345 -0.33646724 0.1544449 0.0337557
-0.28107917 0.15504234 -0.16885035 0.14300026 -0.24072276 0.03615142 0.019489568 0.32615408
0.803685 0.7519652 -0.053827588 -0.27579972 0.20284958 0.32606414 0.206803 -0.24511178
-0.16311981 0.17368552 0.13941453 -0.33382696 0.16632344 -0.61009526 0.39743215 -0.08907673
0.33830288 0.28206918 0.25340053 -0.49905685 -0.07998093 0.3915338 -0.24819484 0.3337184

fc2.weight f4 [10, 256]
00000000: ec82 943d 5d09 0e3d 440f 063b fb80 0b3d
00000010: f7e5 a0bd d3a1 4e3d df3e d13c 557f 9c3d
00000020: 0a03 323d 885d 043d ecd4 29bc 4e06 2abc
00000030: 33cb ce3c 4031 2ebd ecc3 8e3d 0e8f 0cbd
00000040: c405 a8bc 9b7a 853c 3f40 303d 53e6 f2bc
00000050: 386b f5bb 358e 113d 170a 913b 7fad c8bc
00000060: e6a3 803d 56b3 babc 5ab7 3abd a758 cabc
00000070: 77b9 223c 29a5 553c 15d7 5abd 709f f3bc
00000080: 37e5 203d fcc0 073d 60db 1a3d 973a 123c
00000090: d7e2 483d 5754 af3b c1e0 123c b474 debc
000000a0: 33db 8cbd 0123 3b3c e43e a7bd 6478 bd3b
000000b0: 56ac 53bd 15c4 77bd 4c95 0c3d a658 25bd
000000c0: e9a6 afbc 405d 013d 3d32 163d 2a62 49bd
000000d0: 294b 5ebd 01c7 bb3b cfb5 2f3c 723e 253d
000000e0: b588 0abc 476f 533d e7e2 ad3a 4673 5abd
000000f0: 55d8 903d c73c b33c 80d1 0f3d 4835 4a3c
00000100: b6e8 c03b 244c ce3c c539 343c 7449 e13c
00000110: fe62 88bb dca8 cdbb 94e9 aabd b172 06bd
00000120: b228 7cba 996d 8aba 5627 a8bc 2ab4 01bd
00000130: c837 2bbd 7391 0e3d 41c0 95bd 8609 f03c
00000140: f5c6 963c c5bb a23b 5347 3ebd f7fd 823d
00000150: 75b8 713b 5f38 b1bc 98af 3bbd be17 673d
00000160: c769 2d3d cab7 563c aeed a23d 0df7 32bd
00000170: 8efa c6bc 6ce9 903c b4da 41bc 514c 123d
00000180: 2cba 43bd ea11 31bd 91a4 4f3d fd5f 433b
00000190: 0de0 40bd b311 a23c e3a7 0b3d 1a71 c23c
000001a0: 09a4 763d d7b4 48bd c4b3 fe3c c636 453c
000001b0: dc7d c13c b6b3 813d c135 b93c cdba ac3c
000001c0: 451c 733b 046f 2b3d 5cc1 37bd da26 1cbd
000001d0: 37d6 a23c 4bd6 5fbd 4b4e cabc 05fd 58bc
000001e0: e3b7 ae3c d7ff 1e3d 8516 03bd 831a 2dbc
000001f0: 8f94 0dbd 929d 973c ad8e 263b 3c64 4fbd
00000200: 08b2 bdbc 692a c6ba e2fa e03c 288a 163d
00000210: 3057 663d 29cc 0b3d d734 2fbc d97a 023d
00000220: 81d9 9abd b851 883d a009 21bd 5ec4 3cbd
00000230: 26f6 9cbc 4530 fabc 1fb5 973c 3e3a 04bd
00000240: 21eb 143d 2b34 a53a df03 e43c 03b9 5c3d
00000250: 7192 2c3d 47af 8e3d fb25 e3bb 5267 42bd
00000260: 7b70 e33c df8e 113d b148 8bbc d648 3fbd
00000270: 9bd7 6cbd 7df3 32bd c72e 623d 618e 48bd
00000280: 3aa1 d8bc 2d75 263d 7e80 a83d 98ad b2bb
00000290: f2bc bf3c b376 aabc 6a25 283d 9d6b 913c
000002a0: ff30 373c e8b9 9f3c 706a a03c c2ce ccbc
000002b0: 1630 20bd 4fe2 f23c c2ef 7c3d 2531 1cbd
000002c0: 7f80 dfbc aee5 44bd f61c 38bd d33e d8bc
000002d0: b9ab e5bc a58f 283d 5a9e 69bd fe64 183c
000002e0: ffe7 55bc 1db3 fc3c 7ae2 773c 461d 55ba
000002f0: 9153 3dbd 983b 87bd 54dd 4f3d 1c92 5c3d
00000300: 8ee2 4cbd b848 92bd 1658 713c 3152 673c
00000310: f764 79bd 8969 4ebc f30d f6bc 2456 a5bd
00000320: 2693 9cbc c254 1bbd aee4 ae3c e002 3bbd
00000330: 3665 453c a4e7 533d a147 79bc 8f14 a43d
00000340: 984b a6bd f499 9ebd 2840 cb3c c33c 7fbd
00000350: db62 ae3d cff2 e13c 041c 16bd 4cb8 b5bc
00000360: 800c 7ebb d205 4db8 1732 cebc 2b24 01bd
00000370: 93ff e03c 88f0 283d e56d 233d 1e7a 12bc
00000380: ccaa 8d3c 546e d63c ed2d 563d 461a 3c3d
00000390: 46cb b1bc 509b 423d fcef f7bc b975 6d3d
000003a0: ed7f fcbc 75a3 f5bc 76c2 e3bd d6dd a8bc
000003b0: 0a4b 1ebb 9bca 433d ed11 d13c 739c 1a3c
000003c0: 7dc5 b63d 7b45 683d d4a2 cbbd f2ac fc3c
000003d0: b099 a1bd c8a4 fa3c 1640 80bd 2c91 41bc
000003e0: 5810 08bd 9097 293d bb5c c9bc b00a 5d3b
000003f0: ac53 1c3d 1f2e 13bd fd87 2abc 7bd6 6bbd
0.07251534 0.0346769 0.0020455876 0.034058552 -0.07856362 0.050447296 0.025542675 0.07641474
0.04345993 0.03231576 -0.010365706 -0.01037748 0.025243377 -0.042527437 0.06970963 -0.034316115
-0.020510562 0.016293814 0.04303002 -0.029650843 -0.007489588 0.03553601 0.0044262516 -0.024496792
0.06281261 -0.022790592 -0.045585014 -0.024700476 0.009931914 0.0130398655 -0.053427774 -0.029739112
0.039281096 0.03314303 0.03780687 0.008925102 0.049044456 0.0053506303 0.008964718 -0.027155258
-0.068777464 0.01142192 -0.08166292 0.005782174 -0.051678024 -0.060489733 0.034322068 -0.040367745
-0.021441894 0.03158307 0.036669005 -0.049165882 -0.054270897 0.00573051 0.010724499 0.040342756
-0.008455445 0.051619794 0.0013266475 -0.05333259 0.07072512 0.021879567 0.035111904 0.012341805
0.0058871163 0.025182791 0.011000101 0.027500845 -0.0041621914 -0.006276233 -0.08345333 -0.032824222
-0.0009619101 -0.0010561227 -0.02052657 -0.03166596 -0.041801244 0.03480668 -0.0731206 0.029301416
0.018405417 0.0049662315 -0.04645474 0.06396096 0.0036883627 -0.021633325 -0.045821756 0.056419127
0.042337205 0.013105342 0.0795549 -0.043692637 -0.024289396 0.01768943 -0.011831928 0.035717312
-0.04778497 -0.043229975 0.050694052 0.0029811852 -0.04708867 0.01978383 0.034095656 0.023735572
0.06021503 -0.049000587 0.031091578 0.012036985 0.023619585 0.06333105 0.02260864 0.021085167
0.0037095707 0.04185392 -0.044862136 -0.03812299 0.019877536 -0.054647725 -0.024695536 -0.013243918
0.021327918 0.038818207 -0.0320039 -0.010565403 -0.034565505 0.018507753 0.0025414631 -0.0506327
-0.023156181 -0.001511884 0.02746338 0.03675285 0.056235492 0.03413025 -0.01069375 0.031855438
-0.07561017 0.066562116 -0.03931582 -0.046085708 -0.019160341 -0.030540595 0.018518982 -0.032282107
0.03635705 0.0012604048 0.027833877 0.05388738 0.042131845 0.06967025 -0.006932018 -0.047461815
0.027763596 0.035536643 -0.017002435 -0.04670032 -0.057822805 -0.04368924 0.05522039 -0.048963908
-0.026444066 0.04063909 0.08227633 -0.005452823 0.023405526 -0.020808553 0.041051306 0.01775151
0.011181115 0.019497827 0.019582003 -0.025000934 -0.03910836 0.029648928 0.06175209 -0.038132805
-0.027282951 -0.048070602 -0.044949494 -0.026397144 -0.028035985 0.041152615 -0.05703578 0.009301422
-0.0130558 0.030847127 0.01512968 -0.0008129667 -0.046222273 -0.066031635 0.050748184 0.05385028
-0.050020747 -0.07142776 0.014730474 0.014118717 -0.060887303 -0.012598404 -0.030035948 -0.08073071
-0.019113135 -0.03792263 0.021349277 -0.04565704 0.012048056 0.05173458 -0.015214832 0.08011734
-0.08119887 -0.07744208 0.024810866 -0.062313806 0.08514949 0.0275816 -0.03664781 -0.022182606
-0.0038764775 -4.888123e-05 -0.02517037 -0.031528633 0.027465617 0.041245013 0.039899725 -0.008940248
0.017293356 0.026175655 0.052289892 0.045923494 -0.021703374 0.0475114 -0.0302658 0.057973597
-0.030822719 -0.029985169 -0.11121075 -0.020613592 -0.0024153613 0.04780064 0.025521243 0.009436714
0.08924387 0.056706887 -0.099431664 0.030844186 -0.07890642 0.030596152 -0.062622234 -0.011814397
-0.03321871 0.041404307 -0.02458035 0.0033728294 0.038165733 -0.035932656 -0.010408399 -0.05757759

fc2.bias f4 [10]
00000000: bda8 05be f894 e6be 5982 163e 9e4e 133f
00000010: 11c7 a23e 34d3 1a3b 174b b8bd 15d9 82be
00000020: c4be 77be 9527 08be
-0.1305265 -0.4503553 0.14698161 0.57541835 0.317925 0.0023624422 -0.08998697 -0.25556245
-0.24193865 -0.1329635
